<?xml version="1.0" ?>
<net name="torch_jit" version="11">
	<layers>
		<layer id="0" name="data" type="Parameter" version="opset1">
			<data shape="1,3,256,448" element_type="f32"/>
			<rt_info>
				<attribute name="fused_names" version="0" value="data"/>
			</rt_info>
			<output>
				<port id="0" precision="FP32" names="data">
					<dim>1</dim>
					<dim>3</dim>
					<dim>256</dim>
					<dim>448</dim>
				</port>
			</output>
		</layer>
		<layer id="1" name="Constant_4894" type="Const" version="opset1">
			<data element_type="f32" shape="1, 3, 1, 1" offset="0" size="12"/>
			<rt_info>
				<attribute name="fused_names" version="0" value="Constant_4894"/>
			</rt_info>
			<output>
				<port id="0" precision="FP32">
					<dim>1</dim>
					<dim>3</dim>
					<dim>1</dim>
					<dim>1</dim>
				</port>
			</output>
		</layer>
		<layer id="2" name="Subtract_4895" type="Subtract" version="opset1">
			<data auto_broadcast="numpy"/>
			<rt_info>
				<attribute name="fused_names" version="0" value="Subtract_4895"/>
				<attribute name="preprocessing" version="0"/>
			</rt_info>
			<input>
				<port id="0" precision="FP32">
					<dim>1</dim>
					<dim>3</dim>
					<dim>256</dim>
					<dim>448</dim>
				</port>
				<port id="1" precision="FP32">
					<dim>1</dim>
					<dim>3</dim>
					<dim>1</dim>
					<dim>1</dim>
				</port>
			</input>
			<output>
				<port id="2" precision="FP32">
					<dim>1</dim>
					<dim>3</dim>
					<dim>256</dim>
					<dim>448</dim>
				</port>
			</output>
		</layer>
		<layer id="3" name="Constant_9871" type="Const" version="opset1">
			<data element_type="f32" shape="32, 3, 3, 3" offset="12" size="3456"/>
			<rt_info>
				<attribute name="fused_names" version="0" value="Constant_4896, Convolution_159, Divide_4897, onnx::Conv_631"/>
				<attribute name="preprocessing" version="0"/>
			</rt_info>
			<output>
				<port id="0" precision="FP32">
					<dim>32</dim>
					<dim>3</dim>
					<dim>3</dim>
					<dim>3</dim>
				</port>
			</output>
		</layer>
		<layer id="4" name="Convolution_159" type="Convolution" version="opset1">
			<data strides="2, 2" dilations="1, 1" pads_begin="1, 1" pads_end="1, 1" auto_pad="explicit"/>
			<rt_info>
				<attribute name="fused_names" version="0" value="Constant_4896, Convolution_159, Divide_4897, onnx::Conv_631"/>
				<attribute name="preprocessing" version="0"/>
			</rt_info>
			<input>
				<port id="0" precision="FP32">
					<dim>1</dim>
					<dim>3</dim>
					<dim>256</dim>
					<dim>448</dim>
				</port>
				<port id="1" precision="FP32">
					<dim>32</dim>
					<dim>3</dim>
					<dim>3</dim>
					<dim>3</dim>
				</port>
			</input>
			<output>
				<port id="2" precision="FP32">
					<dim>1</dim>
					<dim>32</dim>
					<dim>128</dim>
					<dim>224</dim>
				</port>
			</output>
		</layer>
		<layer id="5" name="Reshape_179" type="Const" version="opset1">
			<data element_type="f32" shape="1, 32, 1, 1" offset="3468" size="128"/>
			<output>
				<port id="0" precision="FP32">
					<dim>1</dim>
					<dim>32</dim>
					<dim>1</dim>
					<dim>1</dim>
				</port>
			</output>
		</layer>
		<layer id="6" name="input.4" type="Add" version="opset1">
			<data auto_broadcast="numpy"/>
			<rt_info>
				<attribute name="fused_names" version="0" value="Concat_178, Reshape_179, input.4"/>
			</rt_info>
			<input>
				<port id="0" precision="FP32">
					<dim>1</dim>
					<dim>32</dim>
					<dim>128</dim>
					<dim>224</dim>
				</port>
				<port id="1" precision="FP32">
					<dim>1</dim>
					<dim>32</dim>
					<dim>1</dim>
					<dim>1</dim>
				</port>
			</input>
			<output>
				<port id="2" precision="FP32" names="input.4">
					<dim>1</dim>
					<dim>32</dim>
					<dim>128</dim>
					<dim>224</dim>
				</port>
			</output>
		</layer>
		<layer id="7" name="onnx::Conv_403" type="ReLU" version="opset1">
			<rt_info>
				<attribute name="fused_names" version="0" value="onnx::Conv_403"/>
			</rt_info>
			<input>
				<port id="0" precision="FP32">
					<dim>1</dim>
					<dim>32</dim>
					<dim>128</dim>
					<dim>224</dim>
				</port>
			</input>
			<output>
				<port id="1" precision="FP32" names="onnx::Conv_403">
					<dim>1</dim>
					<dim>32</dim>
					<dim>128</dim>
					<dim>224</dim>
				</port>
			</output>
		</layer>
		<layer id="8" name="Reshape_215" type="Const" version="opset1">
			<data element_type="f32" shape="32, 1, 1, 3, 3" offset="3596" size="1152"/>
			<output>
				<port id="0" precision="FP32">
					<dim>32</dim>
					<dim>1</dim>
					<dim>1</dim>
					<dim>3</dim>
					<dim>3</dim>
				</port>
			</output>
		</layer>
		<layer id="9" name="GroupConvolution_281" type="GroupConvolution" version="opset1">
			<data strides="1, 1" pads_begin="1, 1" pads_end="1, 1" dilations="1, 1" auto_pad="explicit"/>
			<rt_info>
				<attribute name="fused_names" version="0" value="GroupConvolution_281, Reshape_215"/>
			</rt_info>
			<input>
				<port id="0" precision="FP32">
					<dim>1</dim>
					<dim>32</dim>
					<dim>128</dim>
					<dim>224</dim>
				</port>
				<port id="1" precision="FP32">
					<dim>32</dim>
					<dim>1</dim>
					<dim>1</dim>
					<dim>3</dim>
					<dim>3</dim>
				</port>
			</input>
			<output>
				<port id="2" precision="FP32">
					<dim>1</dim>
					<dim>32</dim>
					<dim>128</dim>
					<dim>224</dim>
				</port>
			</output>
		</layer>
		<layer id="10" name="Reshape_301" type="Const" version="opset1">
			<data element_type="f32" shape="1, 32, 1, 1" offset="4748" size="128"/>
			<output>
				<port id="0" precision="FP32">
					<dim>1</dim>
					<dim>32</dim>
					<dim>1</dim>
					<dim>1</dim>
				</port>
			</output>
		</layer>
		<layer id="11" name="input.12" type="Add" version="opset1">
			<data auto_broadcast="numpy"/>
			<rt_info>
				<attribute name="fused_names" version="0" value="Concat_300, Reshape_301, input.12"/>
			</rt_info>
			<input>
				<port id="0" precision="FP32">
					<dim>1</dim>
					<dim>32</dim>
					<dim>128</dim>
					<dim>224</dim>
				</port>
				<port id="1" precision="FP32">
					<dim>1</dim>
					<dim>32</dim>
					<dim>1</dim>
					<dim>1</dim>
				</port>
			</input>
			<output>
				<port id="2" precision="FP32" names="input.12">
					<dim>1</dim>
					<dim>32</dim>
					<dim>128</dim>
					<dim>224</dim>
				</port>
			</output>
		</layer>
		<layer id="12" name="onnx::Conv_406" type="ReLU" version="opset1">
			<rt_info>
				<attribute name="fused_names" version="0" value="onnx::Conv_406"/>
			</rt_info>
			<input>
				<port id="0" precision="FP32">
					<dim>1</dim>
					<dim>32</dim>
					<dim>128</dim>
					<dim>224</dim>
				</port>
			</input>
			<output>
				<port id="1" precision="FP32" names="onnx::Conv_406">
					<dim>1</dim>
					<dim>32</dim>
					<dim>128</dim>
					<dim>224</dim>
				</port>
			</output>
		</layer>
		<layer id="13" name="onnx::Conv_637" type="Const" version="opset1">
			<data element_type="f32" shape="64, 32, 1, 1" offset="4876" size="8192"/>
			<rt_info>
				<attribute name="fused_names" version="0" value="onnx::Conv_637"/>
			</rt_info>
			<output>
				<port id="0" precision="FP32" names="onnx::Conv_637">
					<dim>64</dim>
					<dim>32</dim>
					<dim>1</dim>
					<dim>1</dim>
				</port>
			</output>
		</layer>
		<layer id="14" name="Convolution_330" type="Convolution" version="opset1">
			<data strides="1, 1" dilations="1, 1" pads_begin="0, 0" pads_end="0, 0" auto_pad="explicit"/>
			<rt_info>
				<attribute name="fused_names" version="0" value="Convolution_330"/>
			</rt_info>
			<input>
				<port id="0" precision="FP32">
					<dim>1</dim>
					<dim>32</dim>
					<dim>128</dim>
					<dim>224</dim>
				</port>
				<port id="1" precision="FP32">
					<dim>64</dim>
					<dim>32</dim>
					<dim>1</dim>
					<dim>1</dim>
				</port>
			</input>
			<output>
				<port id="2" precision="FP32">
					<dim>1</dim>
					<dim>64</dim>
					<dim>128</dim>
					<dim>224</dim>
				</port>
			</output>
		</layer>
		<layer id="15" name="Reshape_350" type="Const" version="opset1">
			<data element_type="f32" shape="1, 64, 1, 1" offset="13068" size="256"/>
			<output>
				<port id="0" precision="FP32">
					<dim>1</dim>
					<dim>64</dim>
					<dim>1</dim>
					<dim>1</dim>
				</port>
			</output>
		</layer>
		<layer id="16" name="input.20" type="Add" version="opset1">
			<data auto_broadcast="numpy"/>
			<rt_info>
				<attribute name="fused_names" version="0" value="Concat_349, Reshape_350, input.20"/>
			</rt_info>
			<input>
				<port id="0" precision="FP32">
					<dim>1</dim>
					<dim>64</dim>
					<dim>128</dim>
					<dim>224</dim>
				</port>
				<port id="1" precision="FP32">
					<dim>1</dim>
					<dim>64</dim>
					<dim>1</dim>
					<dim>1</dim>
				</port>
			</input>
			<output>
				<port id="2" precision="FP32" names="input.20">
					<dim>1</dim>
					<dim>64</dim>
					<dim>128</dim>
					<dim>224</dim>
				</port>
			</output>
		</layer>
		<layer id="17" name="onnx::Conv_409" type="ReLU" version="opset1">
			<rt_info>
				<attribute name="fused_names" version="0" value="onnx::Conv_409"/>
			</rt_info>
			<input>
				<port id="0" precision="FP32">
					<dim>1</dim>
					<dim>64</dim>
					<dim>128</dim>
					<dim>224</dim>
				</port>
			</input>
			<output>
				<port id="1" precision="FP32" names="onnx::Conv_409">
					<dim>1</dim>
					<dim>64</dim>
					<dim>128</dim>
					<dim>224</dim>
				</port>
			</output>
		</layer>
		<layer id="18" name="Reshape_386" type="Const" version="opset1">
			<data element_type="f32" shape="64, 1, 1, 3, 3" offset="13324" size="2304"/>
			<output>
				<port id="0" precision="FP32">
					<dim>64</dim>
					<dim>1</dim>
					<dim>1</dim>
					<dim>3</dim>
					<dim>3</dim>
				</port>
			</output>
		</layer>
		<layer id="19" name="GroupConvolution_452" type="GroupConvolution" version="opset1">
			<data strides="2, 2" pads_begin="1, 1" pads_end="1, 1" dilations="1, 1" auto_pad="explicit"/>
			<rt_info>
				<attribute name="fused_names" version="0" value="GroupConvolution_452, Reshape_386"/>
			</rt_info>
			<input>
				<port id="0" precision="FP32">
					<dim>1</dim>
					<dim>64</dim>
					<dim>128</dim>
					<dim>224</dim>
				</port>
				<port id="1" precision="FP32">
					<dim>64</dim>
					<dim>1</dim>
					<dim>1</dim>
					<dim>3</dim>
					<dim>3</dim>
				</port>
			</input>
			<output>
				<port id="2" precision="FP32">
					<dim>1</dim>
					<dim>64</dim>
					<dim>64</dim>
					<dim>112</dim>
				</port>
			</output>
		</layer>
		<layer id="20" name="Reshape_472" type="Const" version="opset1">
			<data element_type="f32" shape="1, 64, 1, 1" offset="15628" size="256"/>
			<output>
				<port id="0" precision="FP32">
					<dim>1</dim>
					<dim>64</dim>
					<dim>1</dim>
					<dim>1</dim>
				</port>
			</output>
		</layer>
		<layer id="21" name="input.28" type="Add" version="opset1">
			<data auto_broadcast="numpy"/>
			<rt_info>
				<attribute name="fused_names" version="0" value="Concat_471, Reshape_472, input.28"/>
			</rt_info>
			<input>
				<port id="0" precision="FP32">
					<dim>1</dim>
					<dim>64</dim>
					<dim>64</dim>
					<dim>112</dim>
				</port>
				<port id="1" precision="FP32">
					<dim>1</dim>
					<dim>64</dim>
					<dim>1</dim>
					<dim>1</dim>
				</port>
			</input>
			<output>
				<port id="2" precision="FP32" names="input.28">
					<dim>1</dim>
					<dim>64</dim>
					<dim>64</dim>
					<dim>112</dim>
				</port>
			</output>
		</layer>
		<layer id="22" name="onnx::Conv_412" type="ReLU" version="opset1">
			<rt_info>
				<attribute name="fused_names" version="0" value="onnx::Conv_412"/>
			</rt_info>
			<input>
				<port id="0" precision="FP32">
					<dim>1</dim>
					<dim>64</dim>
					<dim>64</dim>
					<dim>112</dim>
				</port>
			</input>
			<output>
				<port id="1" precision="FP32" names="onnx::Conv_412">
					<dim>1</dim>
					<dim>64</dim>
					<dim>64</dim>
					<dim>112</dim>
				</port>
			</output>
		</layer>
		<layer id="23" name="onnx::Conv_643" type="Const" version="opset1">
			<data element_type="f32" shape="128, 64, 1, 1" offset="15884" size="32768"/>
			<rt_info>
				<attribute name="fused_names" version="0" value="onnx::Conv_643"/>
			</rt_info>
			<output>
				<port id="0" precision="FP32" names="onnx::Conv_643">
					<dim>128</dim>
					<dim>64</dim>
					<dim>1</dim>
					<dim>1</dim>
				</port>
			</output>
		</layer>
		<layer id="24" name="Convolution_501" type="Convolution" version="opset1">
			<data strides="1, 1" dilations="1, 1" pads_begin="0, 0" pads_end="0, 0" auto_pad="explicit"/>
			<rt_info>
				<attribute name="fused_names" version="0" value="Convolution_501"/>
			</rt_info>
			<input>
				<port id="0" precision="FP32">
					<dim>1</dim>
					<dim>64</dim>
					<dim>64</dim>
					<dim>112</dim>
				</port>
				<port id="1" precision="FP32">
					<dim>128</dim>
					<dim>64</dim>
					<dim>1</dim>
					<dim>1</dim>
				</port>
			</input>
			<output>
				<port id="2" precision="FP32">
					<dim>1</dim>
					<dim>128</dim>
					<dim>64</dim>
					<dim>112</dim>
				</port>
			</output>
		</layer>
		<layer id="25" name="Reshape_521" type="Const" version="opset1">
			<data element_type="f32" shape="1, 128, 1, 1" offset="48652" size="512"/>
			<output>
				<port id="0" precision="FP32">
					<dim>1</dim>
					<dim>128</dim>
					<dim>1</dim>
					<dim>1</dim>
				</port>
			</output>
		</layer>
		<layer id="26" name="input.36" type="Add" version="opset1">
			<data auto_broadcast="numpy"/>
			<rt_info>
				<attribute name="fused_names" version="0" value="Concat_520, Reshape_521, input.36"/>
			</rt_info>
			<input>
				<port id="0" precision="FP32">
					<dim>1</dim>
					<dim>128</dim>
					<dim>64</dim>
					<dim>112</dim>
				</port>
				<port id="1" precision="FP32">
					<dim>1</dim>
					<dim>128</dim>
					<dim>1</dim>
					<dim>1</dim>
				</port>
			</input>
			<output>
				<port id="2" precision="FP32" names="input.36">
					<dim>1</dim>
					<dim>128</dim>
					<dim>64</dim>
					<dim>112</dim>
				</port>
			</output>
		</layer>
		<layer id="27" name="onnx::Conv_415" type="ReLU" version="opset1">
			<rt_info>
				<attribute name="fused_names" version="0" value="onnx::Conv_415"/>
			</rt_info>
			<input>
				<port id="0" precision="FP32">
					<dim>1</dim>
					<dim>128</dim>
					<dim>64</dim>
					<dim>112</dim>
				</port>
			</input>
			<output>
				<port id="1" precision="FP32" names="onnx::Conv_415">
					<dim>1</dim>
					<dim>128</dim>
					<dim>64</dim>
					<dim>112</dim>
				</port>
			</output>
		</layer>
		<layer id="28" name="Reshape_557" type="Const" version="opset1">
			<data element_type="f32" shape="128, 1, 1, 3, 3" offset="49164" size="4608"/>
			<output>
				<port id="0" precision="FP32">
					<dim>128</dim>
					<dim>1</dim>
					<dim>1</dim>
					<dim>3</dim>
					<dim>3</dim>
				</port>
			</output>
		</layer>
		<layer id="29" name="GroupConvolution_623" type="GroupConvolution" version="opset1">
			<data strides="1, 1" pads_begin="1, 1" pads_end="1, 1" dilations="1, 1" auto_pad="explicit"/>
			<rt_info>
				<attribute name="fused_names" version="0" value="GroupConvolution_623, Reshape_557"/>
			</rt_info>
			<input>
				<port id="0" precision="FP32">
					<dim>1</dim>
					<dim>128</dim>
					<dim>64</dim>
					<dim>112</dim>
				</port>
				<port id="1" precision="FP32">
					<dim>128</dim>
					<dim>1</dim>
					<dim>1</dim>
					<dim>3</dim>
					<dim>3</dim>
				</port>
			</input>
			<output>
				<port id="2" precision="FP32">
					<dim>1</dim>
					<dim>128</dim>
					<dim>64</dim>
					<dim>112</dim>
				</port>
			</output>
		</layer>
		<layer id="30" name="Reshape_643" type="Const" version="opset1">
			<data element_type="f32" shape="1, 128, 1, 1" offset="53772" size="512"/>
			<output>
				<port id="0" precision="FP32">
					<dim>1</dim>
					<dim>128</dim>
					<dim>1</dim>
					<dim>1</dim>
				</port>
			</output>
		</layer>
		<layer id="31" name="input.44" type="Add" version="opset1">
			<data auto_broadcast="numpy"/>
			<rt_info>
				<attribute name="fused_names" version="0" value="Concat_642, Reshape_643, input.44"/>
			</rt_info>
			<input>
				<port id="0" precision="FP32">
					<dim>1</dim>
					<dim>128</dim>
					<dim>64</dim>
					<dim>112</dim>
				</port>
				<port id="1" precision="FP32">
					<dim>1</dim>
					<dim>128</dim>
					<dim>1</dim>
					<dim>1</dim>
				</port>
			</input>
			<output>
				<port id="2" precision="FP32" names="input.44">
					<dim>1</dim>
					<dim>128</dim>
					<dim>64</dim>
					<dim>112</dim>
				</port>
			</output>
		</layer>
		<layer id="32" name="onnx::Conv_418" type="ReLU" version="opset1">
			<rt_info>
				<attribute name="fused_names" version="0" value="onnx::Conv_418"/>
			</rt_info>
			<input>
				<port id="0" precision="FP32">
					<dim>1</dim>
					<dim>128</dim>
					<dim>64</dim>
					<dim>112</dim>
				</port>
			</input>
			<output>
				<port id="1" precision="FP32" names="onnx::Conv_418">
					<dim>1</dim>
					<dim>128</dim>
					<dim>64</dim>
					<dim>112</dim>
				</port>
			</output>
		</layer>
		<layer id="33" name="onnx::Conv_649" type="Const" version="opset1">
			<data element_type="f32" shape="128, 128, 1, 1" offset="54284" size="65536"/>
			<rt_info>
				<attribute name="fused_names" version="0" value="onnx::Conv_649"/>
			</rt_info>
			<output>
				<port id="0" precision="FP32" names="onnx::Conv_649">
					<dim>128</dim>
					<dim>128</dim>
					<dim>1</dim>
					<dim>1</dim>
				</port>
			</output>
		</layer>
		<layer id="34" name="Convolution_672" type="Convolution" version="opset1">
			<data strides="1, 1" dilations="1, 1" pads_begin="0, 0" pads_end="0, 0" auto_pad="explicit"/>
			<rt_info>
				<attribute name="fused_names" version="0" value="Convolution_672"/>
			</rt_info>
			<input>
				<port id="0" precision="FP32">
					<dim>1</dim>
					<dim>128</dim>
					<dim>64</dim>
					<dim>112</dim>
				</port>
				<port id="1" precision="FP32">
					<dim>128</dim>
					<dim>128</dim>
					<dim>1</dim>
					<dim>1</dim>
				</port>
			</input>
			<output>
				<port id="2" precision="FP32">
					<dim>1</dim>
					<dim>128</dim>
					<dim>64</dim>
					<dim>112</dim>
				</port>
			</output>
		</layer>
		<layer id="35" name="Reshape_692" type="Const" version="opset1">
			<data element_type="f32" shape="1, 128, 1, 1" offset="119820" size="512"/>
			<output>
				<port id="0" precision="FP32">
					<dim>1</dim>
					<dim>128</dim>
					<dim>1</dim>
					<dim>1</dim>
				</port>
			</output>
		</layer>
		<layer id="36" name="input.52" type="Add" version="opset1">
			<data auto_broadcast="numpy"/>
			<rt_info>
				<attribute name="fused_names" version="0" value="Concat_691, Reshape_692, input.52"/>
			</rt_info>
			<input>
				<port id="0" precision="FP32">
					<dim>1</dim>
					<dim>128</dim>
					<dim>64</dim>
					<dim>112</dim>
				</port>
				<port id="1" precision="FP32">
					<dim>1</dim>
					<dim>128</dim>
					<dim>1</dim>
					<dim>1</dim>
				</port>
			</input>
			<output>
				<port id="2" precision="FP32" names="input.52">
					<dim>1</dim>
					<dim>128</dim>
					<dim>64</dim>
					<dim>112</dim>
				</port>
			</output>
		</layer>
		<layer id="37" name="onnx::Conv_421" type="ReLU" version="opset1">
			<rt_info>
				<attribute name="fused_names" version="0" value="onnx::Conv_421"/>
			</rt_info>
			<input>
				<port id="0" precision="FP32">
					<dim>1</dim>
					<dim>128</dim>
					<dim>64</dim>
					<dim>112</dim>
				</port>
			</input>
			<output>
				<port id="1" precision="FP32" names="onnx::Conv_421">
					<dim>1</dim>
					<dim>128</dim>
					<dim>64</dim>
					<dim>112</dim>
				</port>
			</output>
		</layer>
		<layer id="38" name="Reshape_728" type="Const" version="opset1">
			<data element_type="f32" shape="128, 1, 1, 3, 3" offset="120332" size="4608"/>
			<output>
				<port id="0" precision="FP32">
					<dim>128</dim>
					<dim>1</dim>
					<dim>1</dim>
					<dim>3</dim>
					<dim>3</dim>
				</port>
			</output>
		</layer>
		<layer id="39" name="GroupConvolution_794" type="GroupConvolution" version="opset1">
			<data strides="2, 2" pads_begin="1, 1" pads_end="1, 1" dilations="1, 1" auto_pad="explicit"/>
			<rt_info>
				<attribute name="fused_names" version="0" value="GroupConvolution_794, Reshape_728"/>
			</rt_info>
			<input>
				<port id="0" precision="FP32">
					<dim>1</dim>
					<dim>128</dim>
					<dim>64</dim>
					<dim>112</dim>
				</port>
				<port id="1" precision="FP32">
					<dim>128</dim>
					<dim>1</dim>
					<dim>1</dim>
					<dim>3</dim>
					<dim>3</dim>
				</port>
			</input>
			<output>
				<port id="2" precision="FP32">
					<dim>1</dim>
					<dim>128</dim>
					<dim>32</dim>
					<dim>56</dim>
				</port>
			</output>
		</layer>
		<layer id="40" name="Reshape_814" type="Const" version="opset1">
			<data element_type="f32" shape="1, 128, 1, 1" offset="124940" size="512"/>
			<output>
				<port id="0" precision="FP32">
					<dim>1</dim>
					<dim>128</dim>
					<dim>1</dim>
					<dim>1</dim>
				</port>
			</output>
		</layer>
		<layer id="41" name="input.60" type="Add" version="opset1">
			<data auto_broadcast="numpy"/>
			<rt_info>
				<attribute name="fused_names" version="0" value="Concat_813, Reshape_814, input.60"/>
			</rt_info>
			<input>
				<port id="0" precision="FP32">
					<dim>1</dim>
					<dim>128</dim>
					<dim>32</dim>
					<dim>56</dim>
				</port>
				<port id="1" precision="FP32">
					<dim>1</dim>
					<dim>128</dim>
					<dim>1</dim>
					<dim>1</dim>
				</port>
			</input>
			<output>
				<port id="2" precision="FP32" names="input.60">
					<dim>1</dim>
					<dim>128</dim>
					<dim>32</dim>
					<dim>56</dim>
				</port>
			</output>
		</layer>
		<layer id="42" name="onnx::Conv_424" type="ReLU" version="opset1">
			<rt_info>
				<attribute name="fused_names" version="0" value="onnx::Conv_424"/>
			</rt_info>
			<input>
				<port id="0" precision="FP32">
					<dim>1</dim>
					<dim>128</dim>
					<dim>32</dim>
					<dim>56</dim>
				</port>
			</input>
			<output>
				<port id="1" precision="FP32" names="onnx::Conv_424">
					<dim>1</dim>
					<dim>128</dim>
					<dim>32</dim>
					<dim>56</dim>
				</port>
			</output>
		</layer>
		<layer id="43" name="onnx::Conv_655" type="Const" version="opset1">
			<data element_type="f32" shape="256, 128, 1, 1" offset="125452" size="131072"/>
			<rt_info>
				<attribute name="fused_names" version="0" value="onnx::Conv_655"/>
			</rt_info>
			<output>
				<port id="0" precision="FP32" names="onnx::Conv_655">
					<dim>256</dim>
					<dim>128</dim>
					<dim>1</dim>
					<dim>1</dim>
				</port>
			</output>
		</layer>
		<layer id="44" name="Convolution_843" type="Convolution" version="opset1">
			<data strides="1, 1" dilations="1, 1" pads_begin="0, 0" pads_end="0, 0" auto_pad="explicit"/>
			<rt_info>
				<attribute name="fused_names" version="0" value="Convolution_843"/>
			</rt_info>
			<input>
				<port id="0" precision="FP32">
					<dim>1</dim>
					<dim>128</dim>
					<dim>32</dim>
					<dim>56</dim>
				</port>
				<port id="1" precision="FP32">
					<dim>256</dim>
					<dim>128</dim>
					<dim>1</dim>
					<dim>1</dim>
				</port>
			</input>
			<output>
				<port id="2" precision="FP32">
					<dim>1</dim>
					<dim>256</dim>
					<dim>32</dim>
					<dim>56</dim>
				</port>
			</output>
		</layer>
		<layer id="45" name="Reshape_863" type="Const" version="opset1">
			<data element_type="f32" shape="1, 256, 1, 1" offset="256524" size="1024"/>
			<output>
				<port id="0" precision="FP32">
					<dim>1</dim>
					<dim>256</dim>
					<dim>1</dim>
					<dim>1</dim>
				</port>
			</output>
		</layer>
		<layer id="46" name="input.68" type="Add" version="opset1">
			<data auto_broadcast="numpy"/>
			<rt_info>
				<attribute name="fused_names" version="0" value="Concat_862, Reshape_863, input.68"/>
			</rt_info>
			<input>
				<port id="0" precision="FP32">
					<dim>1</dim>
					<dim>256</dim>
					<dim>32</dim>
					<dim>56</dim>
				</port>
				<port id="1" precision="FP32">
					<dim>1</dim>
					<dim>256</dim>
					<dim>1</dim>
					<dim>1</dim>
				</port>
			</input>
			<output>
				<port id="2" precision="FP32" names="input.68">
					<dim>1</dim>
					<dim>256</dim>
					<dim>32</dim>
					<dim>56</dim>
				</port>
			</output>
		</layer>
		<layer id="47" name="onnx::Conv_427" type="ReLU" version="opset1">
			<rt_info>
				<attribute name="fused_names" version="0" value="onnx::Conv_427"/>
			</rt_info>
			<input>
				<port id="0" precision="FP32">
					<dim>1</dim>
					<dim>256</dim>
					<dim>32</dim>
					<dim>56</dim>
				</port>
			</input>
			<output>
				<port id="1" precision="FP32" names="onnx::Conv_427">
					<dim>1</dim>
					<dim>256</dim>
					<dim>32</dim>
					<dim>56</dim>
				</port>
			</output>
		</layer>
		<layer id="48" name="Reshape_899" type="Const" version="opset1">
			<data element_type="f32" shape="256, 1, 1, 3, 3" offset="257548" size="9216"/>
			<output>
				<port id="0" precision="FP32">
					<dim>256</dim>
					<dim>1</dim>
					<dim>1</dim>
					<dim>3</dim>
					<dim>3</dim>
				</port>
			</output>
		</layer>
		<layer id="49" name="GroupConvolution_965" type="GroupConvolution" version="opset1">
			<data strides="1, 1" pads_begin="1, 1" pads_end="1, 1" dilations="1, 1" auto_pad="explicit"/>
			<rt_info>
				<attribute name="fused_names" version="0" value="GroupConvolution_965, Reshape_899"/>
			</rt_info>
			<input>
				<port id="0" precision="FP32">
					<dim>1</dim>
					<dim>256</dim>
					<dim>32</dim>
					<dim>56</dim>
				</port>
				<port id="1" precision="FP32">
					<dim>256</dim>
					<dim>1</dim>
					<dim>1</dim>
					<dim>3</dim>
					<dim>3</dim>
				</port>
			</input>
			<output>
				<port id="2" precision="FP32">
					<dim>1</dim>
					<dim>256</dim>
					<dim>32</dim>
					<dim>56</dim>
				</port>
			</output>
		</layer>
		<layer id="50" name="Reshape_985" type="Const" version="opset1">
			<data element_type="f32" shape="1, 256, 1, 1" offset="266764" size="1024"/>
			<output>
				<port id="0" precision="FP32">
					<dim>1</dim>
					<dim>256</dim>
					<dim>1</dim>
					<dim>1</dim>
				</port>
			</output>
		</layer>
		<layer id="51" name="input.76" type="Add" version="opset1">
			<data auto_broadcast="numpy"/>
			<rt_info>
				<attribute name="fused_names" version="0" value="Concat_984, Reshape_985, input.76"/>
			</rt_info>
			<input>
				<port id="0" precision="FP32">
					<dim>1</dim>
					<dim>256</dim>
					<dim>32</dim>
					<dim>56</dim>
				</port>
				<port id="1" precision="FP32">
					<dim>1</dim>
					<dim>256</dim>
					<dim>1</dim>
					<dim>1</dim>
				</port>
			</input>
			<output>
				<port id="2" precision="FP32" names="input.76">
					<dim>1</dim>
					<dim>256</dim>
					<dim>32</dim>
					<dim>56</dim>
				</port>
			</output>
		</layer>
		<layer id="52" name="onnx::Conv_430" type="ReLU" version="opset1">
			<rt_info>
				<attribute name="fused_names" version="0" value="onnx::Conv_430"/>
			</rt_info>
			<input>
				<port id="0" precision="FP32">
					<dim>1</dim>
					<dim>256</dim>
					<dim>32</dim>
					<dim>56</dim>
				</port>
			</input>
			<output>
				<port id="1" precision="FP32" names="onnx::Conv_430">
					<dim>1</dim>
					<dim>256</dim>
					<dim>32</dim>
					<dim>56</dim>
				</port>
			</output>
		</layer>
		<layer id="53" name="onnx::Conv_661" type="Const" version="opset1">
			<data element_type="f32" shape="256, 256, 1, 1" offset="267788" size="262144"/>
			<rt_info>
				<attribute name="fused_names" version="0" value="onnx::Conv_661"/>
			</rt_info>
			<output>
				<port id="0" precision="FP32" names="onnx::Conv_661">
					<dim>256</dim>
					<dim>256</dim>
					<dim>1</dim>
					<dim>1</dim>
				</port>
			</output>
		</layer>
		<layer id="54" name="Convolution_1014" type="Convolution" version="opset1">
			<data strides="1, 1" dilations="1, 1" pads_begin="0, 0" pads_end="0, 0" auto_pad="explicit"/>
			<rt_info>
				<attribute name="fused_names" version="0" value="Convolution_1014"/>
			</rt_info>
			<input>
				<port id="0" precision="FP32">
					<dim>1</dim>
					<dim>256</dim>
					<dim>32</dim>
					<dim>56</dim>
				</port>
				<port id="1" precision="FP32">
					<dim>256</dim>
					<dim>256</dim>
					<dim>1</dim>
					<dim>1</dim>
				</port>
			</input>
			<output>
				<port id="2" precision="FP32">
					<dim>1</dim>
					<dim>256</dim>
					<dim>32</dim>
					<dim>56</dim>
				</port>
			</output>
		</layer>
		<layer id="55" name="Reshape_1034" type="Const" version="opset1">
			<data element_type="f32" shape="1, 256, 1, 1" offset="529932" size="1024"/>
			<output>
				<port id="0" precision="FP32">
					<dim>1</dim>
					<dim>256</dim>
					<dim>1</dim>
					<dim>1</dim>
				</port>
			</output>
		</layer>
		<layer id="56" name="input.84" type="Add" version="opset1">
			<data auto_broadcast="numpy"/>
			<rt_info>
				<attribute name="fused_names" version="0" value="Concat_1033, Reshape_1034, input.84"/>
			</rt_info>
			<input>
				<port id="0" precision="FP32">
					<dim>1</dim>
					<dim>256</dim>
					<dim>32</dim>
					<dim>56</dim>
				</port>
				<port id="1" precision="FP32">
					<dim>1</dim>
					<dim>256</dim>
					<dim>1</dim>
					<dim>1</dim>
				</port>
			</input>
			<output>
				<port id="2" precision="FP32" names="input.84">
					<dim>1</dim>
					<dim>256</dim>
					<dim>32</dim>
					<dim>56</dim>
				</port>
			</output>
		</layer>
		<layer id="57" name="onnx::Conv_433" type="ReLU" version="opset1">
			<rt_info>
				<attribute name="fused_names" version="0" value="onnx::Conv_433"/>
			</rt_info>
			<input>
				<port id="0" precision="FP32">
					<dim>1</dim>
					<dim>256</dim>
					<dim>32</dim>
					<dim>56</dim>
				</port>
			</input>
			<output>
				<port id="1" precision="FP32" names="onnx::Conv_433">
					<dim>1</dim>
					<dim>256</dim>
					<dim>32</dim>
					<dim>56</dim>
				</port>
			</output>
		</layer>
		<layer id="58" name="Reshape_1070" type="Const" version="opset1">
			<data element_type="f32" shape="256, 1, 1, 3, 3" offset="530956" size="9216"/>
			<output>
				<port id="0" precision="FP32">
					<dim>256</dim>
					<dim>1</dim>
					<dim>1</dim>
					<dim>3</dim>
					<dim>3</dim>
				</port>
			</output>
		</layer>
		<layer id="59" name="GroupConvolution_1136" type="GroupConvolution" version="opset1">
			<data strides="1, 1" pads_begin="1, 1" pads_end="1, 1" dilations="1, 1" auto_pad="explicit"/>
			<rt_info>
				<attribute name="fused_names" version="0" value="GroupConvolution_1136, Reshape_1070"/>
			</rt_info>
			<input>
				<port id="0" precision="FP32">
					<dim>1</dim>
					<dim>256</dim>
					<dim>32</dim>
					<dim>56</dim>
				</port>
				<port id="1" precision="FP32">
					<dim>256</dim>
					<dim>1</dim>
					<dim>1</dim>
					<dim>3</dim>
					<dim>3</dim>
				</port>
			</input>
			<output>
				<port id="2" precision="FP32">
					<dim>1</dim>
					<dim>256</dim>
					<dim>32</dim>
					<dim>56</dim>
				</port>
			</output>
		</layer>
		<layer id="60" name="Reshape_1156" type="Const" version="opset1">
			<data element_type="f32" shape="1, 256, 1, 1" offset="540172" size="1024"/>
			<output>
				<port id="0" precision="FP32">
					<dim>1</dim>
					<dim>256</dim>
					<dim>1</dim>
					<dim>1</dim>
				</port>
			</output>
		</layer>
		<layer id="61" name="input.92" type="Add" version="opset1">
			<data auto_broadcast="numpy"/>
			<rt_info>
				<attribute name="fused_names" version="0" value="Concat_1155, Reshape_1156, input.92"/>
			</rt_info>
			<input>
				<port id="0" precision="FP32">
					<dim>1</dim>
					<dim>256</dim>
					<dim>32</dim>
					<dim>56</dim>
				</port>
				<port id="1" precision="FP32">
					<dim>1</dim>
					<dim>256</dim>
					<dim>1</dim>
					<dim>1</dim>
				</port>
			</input>
			<output>
				<port id="2" precision="FP32" names="input.92">
					<dim>1</dim>
					<dim>256</dim>
					<dim>32</dim>
					<dim>56</dim>
				</port>
			</output>
		</layer>
		<layer id="62" name="onnx::Conv_436" type="ReLU" version="opset1">
			<rt_info>
				<attribute name="fused_names" version="0" value="onnx::Conv_436"/>
			</rt_info>
			<input>
				<port id="0" precision="FP32">
					<dim>1</dim>
					<dim>256</dim>
					<dim>32</dim>
					<dim>56</dim>
				</port>
			</input>
			<output>
				<port id="1" precision="FP32" names="onnx::Conv_436">
					<dim>1</dim>
					<dim>256</dim>
					<dim>32</dim>
					<dim>56</dim>
				</port>
			</output>
		</layer>
		<layer id="63" name="onnx::Conv_667" type="Const" version="opset1">
			<data element_type="f32" shape="512, 256, 1, 1" offset="541196" size="524288"/>
			<rt_info>
				<attribute name="fused_names" version="0" value="onnx::Conv_667"/>
			</rt_info>
			<output>
				<port id="0" precision="FP32" names="onnx::Conv_667">
					<dim>512</dim>
					<dim>256</dim>
					<dim>1</dim>
					<dim>1</dim>
				</port>
			</output>
		</layer>
		<layer id="64" name="Convolution_1185" type="Convolution" version="opset1">
			<data strides="1, 1" dilations="1, 1" pads_begin="0, 0" pads_end="0, 0" auto_pad="explicit"/>
			<rt_info>
				<attribute name="fused_names" version="0" value="Convolution_1185"/>
			</rt_info>
			<input>
				<port id="0" precision="FP32">
					<dim>1</dim>
					<dim>256</dim>
					<dim>32</dim>
					<dim>56</dim>
				</port>
				<port id="1" precision="FP32">
					<dim>512</dim>
					<dim>256</dim>
					<dim>1</dim>
					<dim>1</dim>
				</port>
			</input>
			<output>
				<port id="2" precision="FP32">
					<dim>1</dim>
					<dim>512</dim>
					<dim>32</dim>
					<dim>56</dim>
				</port>
			</output>
		</layer>
		<layer id="65" name="Reshape_1205" type="Const" version="opset1">
			<data element_type="f32" shape="1, 512, 1, 1" offset="1065484" size="2048"/>
			<output>
				<port id="0" precision="FP32">
					<dim>1</dim>
					<dim>512</dim>
					<dim>1</dim>
					<dim>1</dim>
				</port>
			</output>
		</layer>
		<layer id="66" name="input.100" type="Add" version="opset1">
			<data auto_broadcast="numpy"/>
			<rt_info>
				<attribute name="fused_names" version="0" value="Concat_1204, Reshape_1205, input.100"/>
			</rt_info>
			<input>
				<port id="0" precision="FP32">
					<dim>1</dim>
					<dim>512</dim>
					<dim>32</dim>
					<dim>56</dim>
				</port>
				<port id="1" precision="FP32">
					<dim>1</dim>
					<dim>512</dim>
					<dim>1</dim>
					<dim>1</dim>
				</port>
			</input>
			<output>
				<port id="2" precision="FP32" names="input.100">
					<dim>1</dim>
					<dim>512</dim>
					<dim>32</dim>
					<dim>56</dim>
				</port>
			</output>
		</layer>
		<layer id="67" name="onnx::Conv_439" type="ReLU" version="opset1">
			<rt_info>
				<attribute name="fused_names" version="0" value="onnx::Conv_439"/>
			</rt_info>
			<input>
				<port id="0" precision="FP32">
					<dim>1</dim>
					<dim>512</dim>
					<dim>32</dim>
					<dim>56</dim>
				</port>
			</input>
			<output>
				<port id="1" precision="FP32" names="onnx::Conv_439">
					<dim>1</dim>
					<dim>512</dim>
					<dim>32</dim>
					<dim>56</dim>
				</port>
			</output>
		</layer>
		<layer id="68" name="Reshape_1241" type="Const" version="opset1">
			<data element_type="f32" shape="512, 1, 1, 3, 3" offset="1067532" size="18432"/>
			<output>
				<port id="0" precision="FP32">
					<dim>512</dim>
					<dim>1</dim>
					<dim>1</dim>
					<dim>3</dim>
					<dim>3</dim>
				</port>
			</output>
		</layer>
		<layer id="69" name="GroupConvolution_1307" type="GroupConvolution" version="opset1">
			<data strides="1, 1" pads_begin="2, 2" pads_end="2, 2" dilations="2, 2" auto_pad="explicit"/>
			<rt_info>
				<attribute name="fused_names" version="0" value="GroupConvolution_1307, Reshape_1241"/>
			</rt_info>
			<input>
				<port id="0" precision="FP32">
					<dim>1</dim>
					<dim>512</dim>
					<dim>32</dim>
					<dim>56</dim>
				</port>
				<port id="1" precision="FP32">
					<dim>512</dim>
					<dim>1</dim>
					<dim>1</dim>
					<dim>3</dim>
					<dim>3</dim>
				</port>
			</input>
			<output>
				<port id="2" precision="FP32">
					<dim>1</dim>
					<dim>512</dim>
					<dim>32</dim>
					<dim>56</dim>
				</port>
			</output>
		</layer>
		<layer id="70" name="Reshape_1327" type="Const" version="opset1">
			<data element_type="f32" shape="1, 512, 1, 1" offset="1085964" size="2048"/>
			<output>
				<port id="0" precision="FP32">
					<dim>1</dim>
					<dim>512</dim>
					<dim>1</dim>
					<dim>1</dim>
				</port>
			</output>
		</layer>
		<layer id="71" name="input.108" type="Add" version="opset1">
			<data auto_broadcast="numpy"/>
			<rt_info>
				<attribute name="fused_names" version="0" value="Concat_1326, Reshape_1327, input.108"/>
			</rt_info>
			<input>
				<port id="0" precision="FP32">
					<dim>1</dim>
					<dim>512</dim>
					<dim>32</dim>
					<dim>56</dim>
				</port>
				<port id="1" precision="FP32">
					<dim>1</dim>
					<dim>512</dim>
					<dim>1</dim>
					<dim>1</dim>
				</port>
			</input>
			<output>
				<port id="2" precision="FP32" names="input.108">
					<dim>1</dim>
					<dim>512</dim>
					<dim>32</dim>
					<dim>56</dim>
				</port>
			</output>
		</layer>
		<layer id="72" name="onnx::Conv_442" type="ReLU" version="opset1">
			<rt_info>
				<attribute name="fused_names" version="0" value="onnx::Conv_442"/>
			</rt_info>
			<input>
				<port id="0" precision="FP32">
					<dim>1</dim>
					<dim>512</dim>
					<dim>32</dim>
					<dim>56</dim>
				</port>
			</input>
			<output>
				<port id="1" precision="FP32" names="onnx::Conv_442">
					<dim>1</dim>
					<dim>512</dim>
					<dim>32</dim>
					<dim>56</dim>
				</port>
			</output>
		</layer>
		<layer id="73" name="onnx::Conv_673" type="Const" version="opset1">
			<data element_type="f32" shape="512, 512, 1, 1" offset="1088012" size="1048576"/>
			<rt_info>
				<attribute name="fused_names" version="0" value="onnx::Conv_673"/>
			</rt_info>
			<output>
				<port id="0" precision="FP32" names="onnx::Conv_673">
					<dim>512</dim>
					<dim>512</dim>
					<dim>1</dim>
					<dim>1</dim>
				</port>
			</output>
		</layer>
		<layer id="74" name="Convolution_1356" type="Convolution" version="opset1">
			<data strides="1, 1" dilations="1, 1" pads_begin="0, 0" pads_end="0, 0" auto_pad="explicit"/>
			<rt_info>
				<attribute name="fused_names" version="0" value="Convolution_1356"/>
			</rt_info>
			<input>
				<port id="0" precision="FP32">
					<dim>1</dim>
					<dim>512</dim>
					<dim>32</dim>
					<dim>56</dim>
				</port>
				<port id="1" precision="FP32">
					<dim>512</dim>
					<dim>512</dim>
					<dim>1</dim>
					<dim>1</dim>
				</port>
			</input>
			<output>
				<port id="2" precision="FP32">
					<dim>1</dim>
					<dim>512</dim>
					<dim>32</dim>
					<dim>56</dim>
				</port>
			</output>
		</layer>
		<layer id="75" name="Reshape_1376" type="Const" version="opset1">
			<data element_type="f32" shape="1, 512, 1, 1" offset="2136588" size="2048"/>
			<output>
				<port id="0" precision="FP32">
					<dim>1</dim>
					<dim>512</dim>
					<dim>1</dim>
					<dim>1</dim>
				</port>
			</output>
		</layer>
		<layer id="76" name="input.116" type="Add" version="opset1">
			<data auto_broadcast="numpy"/>
			<rt_info>
				<attribute name="fused_names" version="0" value="Concat_1375, Reshape_1376, input.116"/>
			</rt_info>
			<input>
				<port id="0" precision="FP32">
					<dim>1</dim>
					<dim>512</dim>
					<dim>32</dim>
					<dim>56</dim>
				</port>
				<port id="1" precision="FP32">
					<dim>1</dim>
					<dim>512</dim>
					<dim>1</dim>
					<dim>1</dim>
				</port>
			</input>
			<output>
				<port id="2" precision="FP32" names="input.116">
					<dim>1</dim>
					<dim>512</dim>
					<dim>32</dim>
					<dim>56</dim>
				</port>
			</output>
		</layer>
		<layer id="77" name="onnx::Conv_445" type="ReLU" version="opset1">
			<rt_info>
				<attribute name="fused_names" version="0" value="onnx::Conv_445"/>
			</rt_info>
			<input>
				<port id="0" precision="FP32">
					<dim>1</dim>
					<dim>512</dim>
					<dim>32</dim>
					<dim>56</dim>
				</port>
			</input>
			<output>
				<port id="1" precision="FP32" names="onnx::Conv_445">
					<dim>1</dim>
					<dim>512</dim>
					<dim>32</dim>
					<dim>56</dim>
				</port>
			</output>
		</layer>
		<layer id="78" name="Reshape_1412" type="Const" version="opset1">
			<data element_type="f32" shape="512, 1, 1, 3, 3" offset="2138636" size="18432"/>
			<output>
				<port id="0" precision="FP32">
					<dim>512</dim>
					<dim>1</dim>
					<dim>1</dim>
					<dim>3</dim>
					<dim>3</dim>
				</port>
			</output>
		</layer>
		<layer id="79" name="GroupConvolution_1478" type="GroupConvolution" version="opset1">
			<data strides="1, 1" pads_begin="1, 1" pads_end="1, 1" dilations="1, 1" auto_pad="explicit"/>
			<rt_info>
				<attribute name="fused_names" version="0" value="GroupConvolution_1478, Reshape_1412"/>
			</rt_info>
			<input>
				<port id="0" precision="FP32">
					<dim>1</dim>
					<dim>512</dim>
					<dim>32</dim>
					<dim>56</dim>
				</port>
				<port id="1" precision="FP32">
					<dim>512</dim>
					<dim>1</dim>
					<dim>1</dim>
					<dim>3</dim>
					<dim>3</dim>
				</port>
			</input>
			<output>
				<port id="2" precision="FP32">
					<dim>1</dim>
					<dim>512</dim>
					<dim>32</dim>
					<dim>56</dim>
				</port>
			</output>
		</layer>
		<layer id="80" name="Reshape_1498" type="Const" version="opset1">
			<data element_type="f32" shape="1, 512, 1, 1" offset="2157068" size="2048"/>
			<output>
				<port id="0" precision="FP32">
					<dim>1</dim>
					<dim>512</dim>
					<dim>1</dim>
					<dim>1</dim>
				</port>
			</output>
		</layer>
		<layer id="81" name="input.124" type="Add" version="opset1">
			<data auto_broadcast="numpy"/>
			<rt_info>
				<attribute name="fused_names" version="0" value="Concat_1497, Reshape_1498, input.124"/>
			</rt_info>
			<input>
				<port id="0" precision="FP32">
					<dim>1</dim>
					<dim>512</dim>
					<dim>32</dim>
					<dim>56</dim>
				</port>
				<port id="1" precision="FP32">
					<dim>1</dim>
					<dim>512</dim>
					<dim>1</dim>
					<dim>1</dim>
				</port>
			</input>
			<output>
				<port id="2" precision="FP32" names="input.124">
					<dim>1</dim>
					<dim>512</dim>
					<dim>32</dim>
					<dim>56</dim>
				</port>
			</output>
		</layer>
		<layer id="82" name="onnx::Conv_448" type="ReLU" version="opset1">
			<rt_info>
				<attribute name="fused_names" version="0" value="onnx::Conv_448"/>
			</rt_info>
			<input>
				<port id="0" precision="FP32">
					<dim>1</dim>
					<dim>512</dim>
					<dim>32</dim>
					<dim>56</dim>
				</port>
			</input>
			<output>
				<port id="1" precision="FP32" names="onnx::Conv_448">
					<dim>1</dim>
					<dim>512</dim>
					<dim>32</dim>
					<dim>56</dim>
				</port>
			</output>
		</layer>
		<layer id="83" name="onnx::Conv_679" type="Const" version="opset1">
			<data element_type="f32" shape="512, 512, 1, 1" offset="2159116" size="1048576"/>
			<rt_info>
				<attribute name="fused_names" version="0" value="onnx::Conv_679"/>
			</rt_info>
			<output>
				<port id="0" precision="FP32" names="onnx::Conv_679">
					<dim>512</dim>
					<dim>512</dim>
					<dim>1</dim>
					<dim>1</dim>
				</port>
			</output>
		</layer>
		<layer id="84" name="Convolution_1527" type="Convolution" version="opset1">
			<data strides="1, 1" dilations="1, 1" pads_begin="0, 0" pads_end="0, 0" auto_pad="explicit"/>
			<rt_info>
				<attribute name="fused_names" version="0" value="Convolution_1527"/>
			</rt_info>
			<input>
				<port id="0" precision="FP32">
					<dim>1</dim>
					<dim>512</dim>
					<dim>32</dim>
					<dim>56</dim>
				</port>
				<port id="1" precision="FP32">
					<dim>512</dim>
					<dim>512</dim>
					<dim>1</dim>
					<dim>1</dim>
				</port>
			</input>
			<output>
				<port id="2" precision="FP32">
					<dim>1</dim>
					<dim>512</dim>
					<dim>32</dim>
					<dim>56</dim>
				</port>
			</output>
		</layer>
		<layer id="85" name="Reshape_1547" type="Const" version="opset1">
			<data element_type="f32" shape="1, 512, 1, 1" offset="3207692" size="2048"/>
			<output>
				<port id="0" precision="FP32">
					<dim>1</dim>
					<dim>512</dim>
					<dim>1</dim>
					<dim>1</dim>
				</port>
			</output>
		</layer>
		<layer id="86" name="input.132" type="Add" version="opset1">
			<data auto_broadcast="numpy"/>
			<rt_info>
				<attribute name="fused_names" version="0" value="Concat_1546, Reshape_1547, input.132"/>
			</rt_info>
			<input>
				<port id="0" precision="FP32">
					<dim>1</dim>
					<dim>512</dim>
					<dim>32</dim>
					<dim>56</dim>
				</port>
				<port id="1" precision="FP32">
					<dim>1</dim>
					<dim>512</dim>
					<dim>1</dim>
					<dim>1</dim>
				</port>
			</input>
			<output>
				<port id="2" precision="FP32" names="input.132">
					<dim>1</dim>
					<dim>512</dim>
					<dim>32</dim>
					<dim>56</dim>
				</port>
			</output>
		</layer>
		<layer id="87" name="onnx::Conv_451" type="ReLU" version="opset1">
			<rt_info>
				<attribute name="fused_names" version="0" value="onnx::Conv_451"/>
			</rt_info>
			<input>
				<port id="0" precision="FP32">
					<dim>1</dim>
					<dim>512</dim>
					<dim>32</dim>
					<dim>56</dim>
				</port>
			</input>
			<output>
				<port id="1" precision="FP32" names="onnx::Conv_451">
					<dim>1</dim>
					<dim>512</dim>
					<dim>32</dim>
					<dim>56</dim>
				</port>
			</output>
		</layer>
		<layer id="88" name="Reshape_1583" type="Const" version="opset1">
			<data element_type="f32" shape="512, 1, 1, 3, 3" offset="3209740" size="18432"/>
			<output>
				<port id="0" precision="FP32">
					<dim>512</dim>
					<dim>1</dim>
					<dim>1</dim>
					<dim>3</dim>
					<dim>3</dim>
				</port>
			</output>
		</layer>
		<layer id="89" name="GroupConvolution_1649" type="GroupConvolution" version="opset1">
			<data strides="1, 1" pads_begin="1, 1" pads_end="1, 1" dilations="1, 1" auto_pad="explicit"/>
			<rt_info>
				<attribute name="fused_names" version="0" value="GroupConvolution_1649, Reshape_1583"/>
			</rt_info>
			<input>
				<port id="0" precision="FP32">
					<dim>1</dim>
					<dim>512</dim>
					<dim>32</dim>
					<dim>56</dim>
				</port>
				<port id="1" precision="FP32">
					<dim>512</dim>
					<dim>1</dim>
					<dim>1</dim>
					<dim>3</dim>
					<dim>3</dim>
				</port>
			</input>
			<output>
				<port id="2" precision="FP32">
					<dim>1</dim>
					<dim>512</dim>
					<dim>32</dim>
					<dim>56</dim>
				</port>
			</output>
		</layer>
		<layer id="90" name="Reshape_1669" type="Const" version="opset1">
			<data element_type="f32" shape="1, 512, 1, 1" offset="3228172" size="2048"/>
			<output>
				<port id="0" precision="FP32">
					<dim>1</dim>
					<dim>512</dim>
					<dim>1</dim>
					<dim>1</dim>
				</port>
			</output>
		</layer>
		<layer id="91" name="input.140" type="Add" version="opset1">
			<data auto_broadcast="numpy"/>
			<rt_info>
				<attribute name="fused_names" version="0" value="Concat_1668, Reshape_1669, input.140"/>
			</rt_info>
			<input>
				<port id="0" precision="FP32">
					<dim>1</dim>
					<dim>512</dim>
					<dim>32</dim>
					<dim>56</dim>
				</port>
				<port id="1" precision="FP32">
					<dim>1</dim>
					<dim>512</dim>
					<dim>1</dim>
					<dim>1</dim>
				</port>
			</input>
			<output>
				<port id="2" precision="FP32" names="input.140">
					<dim>1</dim>
					<dim>512</dim>
					<dim>32</dim>
					<dim>56</dim>
				</port>
			</output>
		</layer>
		<layer id="92" name="onnx::Conv_454" type="ReLU" version="opset1">
			<rt_info>
				<attribute name="fused_names" version="0" value="onnx::Conv_454"/>
			</rt_info>
			<input>
				<port id="0" precision="FP32">
					<dim>1</dim>
					<dim>512</dim>
					<dim>32</dim>
					<dim>56</dim>
				</port>
			</input>
			<output>
				<port id="1" precision="FP32" names="onnx::Conv_454">
					<dim>1</dim>
					<dim>512</dim>
					<dim>32</dim>
					<dim>56</dim>
				</port>
			</output>
		</layer>
		<layer id="93" name="onnx::Conv_685" type="Const" version="opset1">
			<data element_type="f32" shape="512, 512, 1, 1" offset="3230220" size="1048576"/>
			<rt_info>
				<attribute name="fused_names" version="0" value="onnx::Conv_685"/>
			</rt_info>
			<output>
				<port id="0" precision="FP32" names="onnx::Conv_685">
					<dim>512</dim>
					<dim>512</dim>
					<dim>1</dim>
					<dim>1</dim>
				</port>
			</output>
		</layer>
		<layer id="94" name="Convolution_1698" type="Convolution" version="opset1">
			<data strides="1, 1" dilations="1, 1" pads_begin="0, 0" pads_end="0, 0" auto_pad="explicit"/>
			<rt_info>
				<attribute name="fused_names" version="0" value="Convolution_1698"/>
			</rt_info>
			<input>
				<port id="0" precision="FP32">
					<dim>1</dim>
					<dim>512</dim>
					<dim>32</dim>
					<dim>56</dim>
				</port>
				<port id="1" precision="FP32">
					<dim>512</dim>
					<dim>512</dim>
					<dim>1</dim>
					<dim>1</dim>
				</port>
			</input>
			<output>
				<port id="2" precision="FP32">
					<dim>1</dim>
					<dim>512</dim>
					<dim>32</dim>
					<dim>56</dim>
				</port>
			</output>
		</layer>
		<layer id="95" name="Reshape_1718" type="Const" version="opset1">
			<data element_type="f32" shape="1, 512, 1, 1" offset="4278796" size="2048"/>
			<output>
				<port id="0" precision="FP32">
					<dim>1</dim>
					<dim>512</dim>
					<dim>1</dim>
					<dim>1</dim>
				</port>
			</output>
		</layer>
		<layer id="96" name="input.148" type="Add" version="opset1">
			<data auto_broadcast="numpy"/>
			<rt_info>
				<attribute name="fused_names" version="0" value="Concat_1717, Reshape_1718, input.148"/>
			</rt_info>
			<input>
				<port id="0" precision="FP32">
					<dim>1</dim>
					<dim>512</dim>
					<dim>32</dim>
					<dim>56</dim>
				</port>
				<port id="1" precision="FP32">
					<dim>1</dim>
					<dim>512</dim>
					<dim>1</dim>
					<dim>1</dim>
				</port>
			</input>
			<output>
				<port id="2" precision="FP32" names="input.148">
					<dim>1</dim>
					<dim>512</dim>
					<dim>32</dim>
					<dim>56</dim>
				</port>
			</output>
		</layer>
		<layer id="97" name="onnx::Conv_457" type="ReLU" version="opset1">
			<rt_info>
				<attribute name="fused_names" version="0" value="onnx::Conv_457"/>
			</rt_info>
			<input>
				<port id="0" precision="FP32">
					<dim>1</dim>
					<dim>512</dim>
					<dim>32</dim>
					<dim>56</dim>
				</port>
			</input>
			<output>
				<port id="1" precision="FP32" names="onnx::Conv_457">
					<dim>1</dim>
					<dim>512</dim>
					<dim>32</dim>
					<dim>56</dim>
				</port>
			</output>
		</layer>
		<layer id="98" name="Reshape_1754" type="Const" version="opset1">
			<data element_type="f32" shape="512, 1, 1, 3, 3" offset="4280844" size="18432"/>
			<output>
				<port id="0" precision="FP32">
					<dim>512</dim>
					<dim>1</dim>
					<dim>1</dim>
					<dim>3</dim>
					<dim>3</dim>
				</port>
			</output>
		</layer>
		<layer id="99" name="GroupConvolution_1820" type="GroupConvolution" version="opset1">
			<data strides="1, 1" pads_begin="1, 1" pads_end="1, 1" dilations="1, 1" auto_pad="explicit"/>
			<rt_info>
				<attribute name="fused_names" version="0" value="GroupConvolution_1820, Reshape_1754"/>
			</rt_info>
			<input>
				<port id="0" precision="FP32">
					<dim>1</dim>
					<dim>512</dim>
					<dim>32</dim>
					<dim>56</dim>
				</port>
				<port id="1" precision="FP32">
					<dim>512</dim>
					<dim>1</dim>
					<dim>1</dim>
					<dim>3</dim>
					<dim>3</dim>
				</port>
			</input>
			<output>
				<port id="2" precision="FP32">
					<dim>1</dim>
					<dim>512</dim>
					<dim>32</dim>
					<dim>56</dim>
				</port>
			</output>
		</layer>
		<layer id="100" name="Reshape_1840" type="Const" version="opset1">
			<data element_type="f32" shape="1, 512, 1, 1" offset="4299276" size="2048"/>
			<output>
				<port id="0" precision="FP32">
					<dim>1</dim>
					<dim>512</dim>
					<dim>1</dim>
					<dim>1</dim>
				</port>
			</output>
		</layer>
		<layer id="101" name="input.156" type="Add" version="opset1">
			<data auto_broadcast="numpy"/>
			<rt_info>
				<attribute name="fused_names" version="0" value="Concat_1839, Reshape_1840, input.156"/>
			</rt_info>
			<input>
				<port id="0" precision="FP32">
					<dim>1</dim>
					<dim>512</dim>
					<dim>32</dim>
					<dim>56</dim>
				</port>
				<port id="1" precision="FP32">
					<dim>1</dim>
					<dim>512</dim>
					<dim>1</dim>
					<dim>1</dim>
				</port>
			</input>
			<output>
				<port id="2" precision="FP32" names="input.156">
					<dim>1</dim>
					<dim>512</dim>
					<dim>32</dim>
					<dim>56</dim>
				</port>
			</output>
		</layer>
		<layer id="102" name="onnx::Conv_460" type="ReLU" version="opset1">
			<rt_info>
				<attribute name="fused_names" version="0" value="onnx::Conv_460"/>
			</rt_info>
			<input>
				<port id="0" precision="FP32">
					<dim>1</dim>
					<dim>512</dim>
					<dim>32</dim>
					<dim>56</dim>
				</port>
			</input>
			<output>
				<port id="1" precision="FP32" names="onnx::Conv_460">
					<dim>1</dim>
					<dim>512</dim>
					<dim>32</dim>
					<dim>56</dim>
				</port>
			</output>
		</layer>
		<layer id="103" name="onnx::Conv_691" type="Const" version="opset1">
			<data element_type="f32" shape="512, 512, 1, 1" offset="4301324" size="1048576"/>
			<rt_info>
				<attribute name="fused_names" version="0" value="onnx::Conv_691"/>
			</rt_info>
			<output>
				<port id="0" precision="FP32" names="onnx::Conv_691">
					<dim>512</dim>
					<dim>512</dim>
					<dim>1</dim>
					<dim>1</dim>
				</port>
			</output>
		</layer>
		<layer id="104" name="Convolution_1869" type="Convolution" version="opset1">
			<data strides="1, 1" dilations="1, 1" pads_begin="0, 0" pads_end="0, 0" auto_pad="explicit"/>
			<rt_info>
				<attribute name="fused_names" version="0" value="Convolution_1869"/>
			</rt_info>
			<input>
				<port id="0" precision="FP32">
					<dim>1</dim>
					<dim>512</dim>
					<dim>32</dim>
					<dim>56</dim>
				</port>
				<port id="1" precision="FP32">
					<dim>512</dim>
					<dim>512</dim>
					<dim>1</dim>
					<dim>1</dim>
				</port>
			</input>
			<output>
				<port id="2" precision="FP32">
					<dim>1</dim>
					<dim>512</dim>
					<dim>32</dim>
					<dim>56</dim>
				</port>
			</output>
		</layer>
		<layer id="105" name="Reshape_1889" type="Const" version="opset1">
			<data element_type="f32" shape="1, 512, 1, 1" offset="5349900" size="2048"/>
			<output>
				<port id="0" precision="FP32">
					<dim>1</dim>
					<dim>512</dim>
					<dim>1</dim>
					<dim>1</dim>
				</port>
			</output>
		</layer>
		<layer id="106" name="input.164" type="Add" version="opset1">
			<data auto_broadcast="numpy"/>
			<rt_info>
				<attribute name="fused_names" version="0" value="Concat_1888, Reshape_1889, input.164"/>
			</rt_info>
			<input>
				<port id="0" precision="FP32">
					<dim>1</dim>
					<dim>512</dim>
					<dim>32</dim>
					<dim>56</dim>
				</port>
				<port id="1" precision="FP32">
					<dim>1</dim>
					<dim>512</dim>
					<dim>1</dim>
					<dim>1</dim>
				</port>
			</input>
			<output>
				<port id="2" precision="FP32" names="input.164">
					<dim>1</dim>
					<dim>512</dim>
					<dim>32</dim>
					<dim>56</dim>
				</port>
			</output>
		</layer>
		<layer id="107" name="onnx::Conv_463" type="ReLU" version="opset1">
			<rt_info>
				<attribute name="fused_names" version="0" value="onnx::Conv_463"/>
			</rt_info>
			<input>
				<port id="0" precision="FP32">
					<dim>1</dim>
					<dim>512</dim>
					<dim>32</dim>
					<dim>56</dim>
				</port>
			</input>
			<output>
				<port id="1" precision="FP32" names="onnx::Conv_463">
					<dim>1</dim>
					<dim>512</dim>
					<dim>32</dim>
					<dim>56</dim>
				</port>
			</output>
		</layer>
		<layer id="108" name="Reshape_1925" type="Const" version="opset1">
			<data element_type="f32" shape="512, 1, 1, 3, 3" offset="5351948" size="18432"/>
			<output>
				<port id="0" precision="FP32">
					<dim>512</dim>
					<dim>1</dim>
					<dim>1</dim>
					<dim>3</dim>
					<dim>3</dim>
				</port>
			</output>
		</layer>
		<layer id="109" name="GroupConvolution_1991" type="GroupConvolution" version="opset1">
			<data strides="1, 1" pads_begin="1, 1" pads_end="1, 1" dilations="1, 1" auto_pad="explicit"/>
			<rt_info>
				<attribute name="fused_names" version="0" value="GroupConvolution_1991, Reshape_1925"/>
			</rt_info>
			<input>
				<port id="0" precision="FP32">
					<dim>1</dim>
					<dim>512</dim>
					<dim>32</dim>
					<dim>56</dim>
				</port>
				<port id="1" precision="FP32">
					<dim>512</dim>
					<dim>1</dim>
					<dim>1</dim>
					<dim>3</dim>
					<dim>3</dim>
				</port>
			</input>
			<output>
				<port id="2" precision="FP32">
					<dim>1</dim>
					<dim>512</dim>
					<dim>32</dim>
					<dim>56</dim>
				</port>
			</output>
		</layer>
		<layer id="110" name="Reshape_2011" type="Const" version="opset1">
			<data element_type="f32" shape="1, 512, 1, 1" offset="5370380" size="2048"/>
			<output>
				<port id="0" precision="FP32">
					<dim>1</dim>
					<dim>512</dim>
					<dim>1</dim>
					<dim>1</dim>
				</port>
			</output>
		</layer>
		<layer id="111" name="input.172" type="Add" version="opset1">
			<data auto_broadcast="numpy"/>
			<rt_info>
				<attribute name="fused_names" version="0" value="Concat_2010, Reshape_2011, input.172"/>
			</rt_info>
			<input>
				<port id="0" precision="FP32">
					<dim>1</dim>
					<dim>512</dim>
					<dim>32</dim>
					<dim>56</dim>
				</port>
				<port id="1" precision="FP32">
					<dim>1</dim>
					<dim>512</dim>
					<dim>1</dim>
					<dim>1</dim>
				</port>
			</input>
			<output>
				<port id="2" precision="FP32" names="input.172">
					<dim>1</dim>
					<dim>512</dim>
					<dim>32</dim>
					<dim>56</dim>
				</port>
			</output>
		</layer>
		<layer id="112" name="onnx::Conv_466" type="ReLU" version="opset1">
			<rt_info>
				<attribute name="fused_names" version="0" value="onnx::Conv_466"/>
			</rt_info>
			<input>
				<port id="0" precision="FP32">
					<dim>1</dim>
					<dim>512</dim>
					<dim>32</dim>
					<dim>56</dim>
				</port>
			</input>
			<output>
				<port id="1" precision="FP32" names="onnx::Conv_466">
					<dim>1</dim>
					<dim>512</dim>
					<dim>32</dim>
					<dim>56</dim>
				</port>
			</output>
		</layer>
		<layer id="113" name="onnx::Conv_697" type="Const" version="opset1">
			<data element_type="f32" shape="512, 512, 1, 1" offset="5372428" size="1048576"/>
			<rt_info>
				<attribute name="fused_names" version="0" value="onnx::Conv_697"/>
			</rt_info>
			<output>
				<port id="0" precision="FP32" names="onnx::Conv_697">
					<dim>512</dim>
					<dim>512</dim>
					<dim>1</dim>
					<dim>1</dim>
				</port>
			</output>
		</layer>
		<layer id="114" name="Convolution_2040" type="Convolution" version="opset1">
			<data strides="1, 1" dilations="1, 1" pads_begin="0, 0" pads_end="0, 0" auto_pad="explicit"/>
			<rt_info>
				<attribute name="fused_names" version="0" value="Convolution_2040"/>
			</rt_info>
			<input>
				<port id="0" precision="FP32">
					<dim>1</dim>
					<dim>512</dim>
					<dim>32</dim>
					<dim>56</dim>
				</port>
				<port id="1" precision="FP32">
					<dim>512</dim>
					<dim>512</dim>
					<dim>1</dim>
					<dim>1</dim>
				</port>
			</input>
			<output>
				<port id="2" precision="FP32">
					<dim>1</dim>
					<dim>512</dim>
					<dim>32</dim>
					<dim>56</dim>
				</port>
			</output>
		</layer>
		<layer id="115" name="Reshape_2060" type="Const" version="opset1">
			<data element_type="f32" shape="1, 512, 1, 1" offset="6421004" size="2048"/>
			<output>
				<port id="0" precision="FP32">
					<dim>1</dim>
					<dim>512</dim>
					<dim>1</dim>
					<dim>1</dim>
				</port>
			</output>
		</layer>
		<layer id="116" name="input.180" type="Add" version="opset1">
			<data auto_broadcast="numpy"/>
			<rt_info>
				<attribute name="fused_names" version="0" value="Concat_2059, Reshape_2060, input.180"/>
			</rt_info>
			<input>
				<port id="0" precision="FP32">
					<dim>1</dim>
					<dim>512</dim>
					<dim>32</dim>
					<dim>56</dim>
				</port>
				<port id="1" precision="FP32">
					<dim>1</dim>
					<dim>512</dim>
					<dim>1</dim>
					<dim>1</dim>
				</port>
			</input>
			<output>
				<port id="2" precision="FP32" names="input.180">
					<dim>1</dim>
					<dim>512</dim>
					<dim>32</dim>
					<dim>56</dim>
				</port>
			</output>
		</layer>
		<layer id="117" name="onnx::Conv_469" type="ReLU" version="opset1">
			<rt_info>
				<attribute name="fused_names" version="0" value="onnx::Conv_469"/>
			</rt_info>
			<input>
				<port id="0" precision="FP32">
					<dim>1</dim>
					<dim>512</dim>
					<dim>32</dim>
					<dim>56</dim>
				</port>
			</input>
			<output>
				<port id="1" precision="FP32" names="onnx::Conv_469">
					<dim>1</dim>
					<dim>512</dim>
					<dim>32</dim>
					<dim>56</dim>
				</port>
			</output>
		</layer>
		<layer id="118" name="cpm.align.0.weight" type="Const" version="opset1">
			<data element_type="f32" shape="128, 512, 1, 1" offset="6423052" size="262144"/>
			<rt_info>
				<attribute name="fused_names" version="0" value="cpm.align.0.weight"/>
			</rt_info>
			<output>
				<port id="0" precision="FP32" names="cpm.align.0.weight">
					<dim>128</dim>
					<dim>512</dim>
					<dim>1</dim>
					<dim>1</dim>
				</port>
			</output>
		</layer>
		<layer id="119" name="Convolution_2089" type="Convolution" version="opset1">
			<data strides="1, 1" dilations="1, 1" pads_begin="0, 0" pads_end="0, 0" auto_pad="explicit"/>
			<rt_info>
				<attribute name="fused_names" version="0" value="Convolution_2089"/>
			</rt_info>
			<input>
				<port id="0" precision="FP32">
					<dim>1</dim>
					<dim>512</dim>
					<dim>32</dim>
					<dim>56</dim>
				</port>
				<port id="1" precision="FP32">
					<dim>128</dim>
					<dim>512</dim>
					<dim>1</dim>
					<dim>1</dim>
				</port>
			</input>
			<output>
				<port id="2" precision="FP32">
					<dim>1</dim>
					<dim>128</dim>
					<dim>32</dim>
					<dim>56</dim>
				</port>
			</output>
		</layer>
		<layer id="120" name="Reshape_2109" type="Const" version="opset1">
			<data element_type="f32" shape="1, 128, 1, 1" offset="6685196" size="512"/>
			<output>
				<port id="0" precision="FP32">
					<dim>1</dim>
					<dim>128</dim>
					<dim>1</dim>
					<dim>1</dim>
				</port>
			</output>
		</layer>
		<layer id="121" name="input.184" type="Add" version="opset1">
			<data auto_broadcast="numpy"/>
			<rt_info>
				<attribute name="fused_names" version="0" value="Concat_2108, Reshape_2109, input.184"/>
			</rt_info>
			<input>
				<port id="0" precision="FP32">
					<dim>1</dim>
					<dim>128</dim>
					<dim>32</dim>
					<dim>56</dim>
				</port>
				<port id="1" precision="FP32">
					<dim>1</dim>
					<dim>128</dim>
					<dim>1</dim>
					<dim>1</dim>
				</port>
			</input>
			<output>
				<port id="2" precision="FP32" names="input.184">
					<dim>1</dim>
					<dim>128</dim>
					<dim>32</dim>
					<dim>56</dim>
				</port>
			</output>
		</layer>
		<layer id="122" name="onnx::Conv_471" type="ReLU" version="opset1">
			<rt_info>
				<attribute name="fused_names" version="0" value="onnx::Conv_471"/>
			</rt_info>
			<input>
				<port id="0" precision="FP32">
					<dim>1</dim>
					<dim>128</dim>
					<dim>32</dim>
					<dim>56</dim>
				</port>
			</input>
			<output>
				<port id="1" precision="FP32" names="onnx::Conv_471">
					<dim>1</dim>
					<dim>128</dim>
					<dim>32</dim>
					<dim>56</dim>
				</port>
			</output>
		</layer>
		<layer id="123" name="Reshape_2146" type="Const" version="opset1">
			<data element_type="f32" shape="128, 1, 1, 3, 3" offset="6685708" size="4608"/>
			<output>
				<port id="0" precision="FP32">
					<dim>128</dim>
					<dim>1</dim>
					<dim>1</dim>
					<dim>3</dim>
					<dim>3</dim>
				</port>
			</output>
		</layer>
		<layer id="124" name="input.188" type="GroupConvolution" version="opset1">
			<data strides="1, 1" pads_begin="1, 1" pads_end="1, 1" dilations="1, 1" auto_pad="explicit"/>
			<rt_info>
				<attribute name="fused_names" version="0" value="Reshape_2146, input.188"/>
			</rt_info>
			<input>
				<port id="0" precision="FP32">
					<dim>1</dim>
					<dim>128</dim>
					<dim>32</dim>
					<dim>56</dim>
				</port>
				<port id="1" precision="FP32">
					<dim>128</dim>
					<dim>1</dim>
					<dim>1</dim>
					<dim>3</dim>
					<dim>3</dim>
				</port>
			</input>
			<output>
				<port id="2" precision="FP32" names="input.188">
					<dim>1</dim>
					<dim>128</dim>
					<dim>32</dim>
					<dim>56</dim>
				</port>
			</output>
		</layer>
		<layer id="125" name="onnx::Conv_473" type="Elu" version="opset1">
			<data alpha="1"/>
			<rt_info>
				<attribute name="fused_names" version="0" value="onnx::Conv_473"/>
			</rt_info>
			<input>
				<port id="0" precision="FP32">
					<dim>1</dim>
					<dim>128</dim>
					<dim>32</dim>
					<dim>56</dim>
				</port>
			</input>
			<output>
				<port id="1" precision="FP32" names="onnx::Conv_473">
					<dim>1</dim>
					<dim>128</dim>
					<dim>32</dim>
					<dim>56</dim>
				</port>
			</output>
		</layer>
		<layer id="126" name="cpm.trunk.0.2.weight" type="Const" version="opset1">
			<data element_type="f32" shape="128, 128, 1, 1" offset="6690316" size="65536"/>
			<rt_info>
				<attribute name="fused_names" version="0" value="cpm.trunk.0.2.weight"/>
			</rt_info>
			<output>
				<port id="0" precision="FP32" names="cpm.trunk.0.2.weight">
					<dim>128</dim>
					<dim>128</dim>
					<dim>1</dim>
					<dim>1</dim>
				</port>
			</output>
		</layer>
		<layer id="127" name="input.192" type="Convolution" version="opset1">
			<data strides="1, 1" dilations="1, 1" pads_begin="0, 0" pads_end="0, 0" auto_pad="explicit"/>
			<rt_info>
				<attribute name="fused_names" version="0" value="input.192"/>
			</rt_info>
			<input>
				<port id="0" precision="FP32">
					<dim>1</dim>
					<dim>128</dim>
					<dim>32</dim>
					<dim>56</dim>
				</port>
				<port id="1" precision="FP32">
					<dim>128</dim>
					<dim>128</dim>
					<dim>1</dim>
					<dim>1</dim>
				</port>
			</input>
			<output>
				<port id="2" precision="FP32" names="input.192">
					<dim>1</dim>
					<dim>128</dim>
					<dim>32</dim>
					<dim>56</dim>
				</port>
			</output>
		</layer>
		<layer id="128" name="onnx::Conv_475" type="Elu" version="opset1">
			<data alpha="1"/>
			<rt_info>
				<attribute name="fused_names" version="0" value="onnx::Conv_475"/>
			</rt_info>
			<input>
				<port id="0" precision="FP32">
					<dim>1</dim>
					<dim>128</dim>
					<dim>32</dim>
					<dim>56</dim>
				</port>
			</input>
			<output>
				<port id="1" precision="FP32" names="onnx::Conv_475">
					<dim>1</dim>
					<dim>128</dim>
					<dim>32</dim>
					<dim>56</dim>
				</port>
			</output>
		</layer>
		<layer id="129" name="Reshape_2225" type="Const" version="opset1">
			<data element_type="f32" shape="128, 1, 1, 3, 3" offset="6755852" size="4608"/>
			<output>
				<port id="0" precision="FP32">
					<dim>128</dim>
					<dim>1</dim>
					<dim>1</dim>
					<dim>3</dim>
					<dim>3</dim>
				</port>
			</output>
		</layer>
		<layer id="130" name="input.196" type="GroupConvolution" version="opset1">
			<data strides="1, 1" pads_begin="1, 1" pads_end="1, 1" dilations="1, 1" auto_pad="explicit"/>
			<rt_info>
				<attribute name="fused_names" version="0" value="Reshape_2225, input.196"/>
			</rt_info>
			<input>
				<port id="0" precision="FP32">
					<dim>1</dim>
					<dim>128</dim>
					<dim>32</dim>
					<dim>56</dim>
				</port>
				<port id="1" precision="FP32">
					<dim>128</dim>
					<dim>1</dim>
					<dim>1</dim>
					<dim>3</dim>
					<dim>3</dim>
				</port>
			</input>
			<output>
				<port id="2" precision="FP32" names="input.196">
					<dim>1</dim>
					<dim>128</dim>
					<dim>32</dim>
					<dim>56</dim>
				</port>
			</output>
		</layer>
		<layer id="131" name="onnx::Conv_477" type="Elu" version="opset1">
			<data alpha="1"/>
			<rt_info>
				<attribute name="fused_names" version="0" value="onnx::Conv_477"/>
			</rt_info>
			<input>
				<port id="0" precision="FP32">
					<dim>1</dim>
					<dim>128</dim>
					<dim>32</dim>
					<dim>56</dim>
				</port>
			</input>
			<output>
				<port id="1" precision="FP32" names="onnx::Conv_477">
					<dim>1</dim>
					<dim>128</dim>
					<dim>32</dim>
					<dim>56</dim>
				</port>
			</output>
		</layer>
		<layer id="132" name="cpm.trunk.1.2.weight" type="Const" version="opset1">
			<data element_type="f32" shape="128, 128, 1, 1" offset="6760460" size="65536"/>
			<rt_info>
				<attribute name="fused_names" version="0" value="cpm.trunk.1.2.weight"/>
			</rt_info>
			<output>
				<port id="0" precision="FP32" names="cpm.trunk.1.2.weight">
					<dim>128</dim>
					<dim>128</dim>
					<dim>1</dim>
					<dim>1</dim>
				</port>
			</output>
		</layer>
		<layer id="133" name="input.200" type="Convolution" version="opset1">
			<data strides="1, 1" dilations="1, 1" pads_begin="0, 0" pads_end="0, 0" auto_pad="explicit"/>
			<rt_info>
				<attribute name="fused_names" version="0" value="input.200"/>
			</rt_info>
			<input>
				<port id="0" precision="FP32">
					<dim>1</dim>
					<dim>128</dim>
					<dim>32</dim>
					<dim>56</dim>
				</port>
				<port id="1" precision="FP32">
					<dim>128</dim>
					<dim>128</dim>
					<dim>1</dim>
					<dim>1</dim>
				</port>
			</input>
			<output>
				<port id="2" precision="FP32" names="input.200">
					<dim>1</dim>
					<dim>128</dim>
					<dim>32</dim>
					<dim>56</dim>
				</port>
			</output>
		</layer>
		<layer id="134" name="onnx::Conv_479" type="Elu" version="opset1">
			<data alpha="1"/>
			<rt_info>
				<attribute name="fused_names" version="0" value="onnx::Conv_479"/>
			</rt_info>
			<input>
				<port id="0" precision="FP32">
					<dim>1</dim>
					<dim>128</dim>
					<dim>32</dim>
					<dim>56</dim>
				</port>
			</input>
			<output>
				<port id="1" precision="FP32" names="onnx::Conv_479">
					<dim>1</dim>
					<dim>128</dim>
					<dim>32</dim>
					<dim>56</dim>
				</port>
			</output>
		</layer>
		<layer id="135" name="Reshape_2304" type="Const" version="opset1">
			<data element_type="f32" shape="128, 1, 1, 3, 3" offset="6825996" size="4608"/>
			<output>
				<port id="0" precision="FP32">
					<dim>128</dim>
					<dim>1</dim>
					<dim>1</dim>
					<dim>3</dim>
					<dim>3</dim>
				</port>
			</output>
		</layer>
		<layer id="136" name="input.204" type="GroupConvolution" version="opset1">
			<data strides="1, 1" pads_begin="1, 1" pads_end="1, 1" dilations="1, 1" auto_pad="explicit"/>
			<rt_info>
				<attribute name="fused_names" version="0" value="Reshape_2304, input.204"/>
			</rt_info>
			<input>
				<port id="0" precision="FP32">
					<dim>1</dim>
					<dim>128</dim>
					<dim>32</dim>
					<dim>56</dim>
				</port>
				<port id="1" precision="FP32">
					<dim>128</dim>
					<dim>1</dim>
					<dim>1</dim>
					<dim>3</dim>
					<dim>3</dim>
				</port>
			</input>
			<output>
				<port id="2" precision="FP32" names="input.204">
					<dim>1</dim>
					<dim>128</dim>
					<dim>32</dim>
					<dim>56</dim>
				</port>
			</output>
		</layer>
		<layer id="137" name="onnx::Conv_481" type="Elu" version="opset1">
			<data alpha="1"/>
			<rt_info>
				<attribute name="fused_names" version="0" value="onnx::Conv_481"/>
			</rt_info>
			<input>
				<port id="0" precision="FP32">
					<dim>1</dim>
					<dim>128</dim>
					<dim>32</dim>
					<dim>56</dim>
				</port>
			</input>
			<output>
				<port id="1" precision="FP32" names="onnx::Conv_481">
					<dim>1</dim>
					<dim>128</dim>
					<dim>32</dim>
					<dim>56</dim>
				</port>
			</output>
		</layer>
		<layer id="138" name="cpm.trunk.2.2.weight" type="Const" version="opset1">
			<data element_type="f32" shape="128, 128, 1, 1" offset="6830604" size="65536"/>
			<rt_info>
				<attribute name="fused_names" version="0" value="cpm.trunk.2.2.weight"/>
			</rt_info>
			<output>
				<port id="0" precision="FP32" names="cpm.trunk.2.2.weight">
					<dim>128</dim>
					<dim>128</dim>
					<dim>1</dim>
					<dim>1</dim>
				</port>
			</output>
		</layer>
		<layer id="139" name="input.208" type="Convolution" version="opset1">
			<data strides="1, 1" dilations="1, 1" pads_begin="0, 0" pads_end="0, 0" auto_pad="explicit"/>
			<rt_info>
				<attribute name="fused_names" version="0" value="input.208"/>
			</rt_info>
			<input>
				<port id="0" precision="FP32">
					<dim>1</dim>
					<dim>128</dim>
					<dim>32</dim>
					<dim>56</dim>
				</port>
				<port id="1" precision="FP32">
					<dim>128</dim>
					<dim>128</dim>
					<dim>1</dim>
					<dim>1</dim>
				</port>
			</input>
			<output>
				<port id="2" precision="FP32" names="input.208">
					<dim>1</dim>
					<dim>128</dim>
					<dim>32</dim>
					<dim>56</dim>
				</port>
			</output>
		</layer>
		<layer id="140" name="onnx::Add_483" type="Elu" version="opset1">
			<data alpha="1"/>
			<rt_info>
				<attribute name="fused_names" version="0" value="onnx::Add_483"/>
			</rt_info>
			<input>
				<port id="0" precision="FP32">
					<dim>1</dim>
					<dim>128</dim>
					<dim>32</dim>
					<dim>56</dim>
				</port>
			</input>
			<output>
				<port id="1" precision="FP32" names="onnx::Add_483">
					<dim>1</dim>
					<dim>128</dim>
					<dim>32</dim>
					<dim>56</dim>
				</port>
			</output>
		</layer>
		<layer id="141" name="input.212" type="Add" version="opset1">
			<data auto_broadcast="numpy"/>
			<rt_info>
				<attribute name="fused_names" version="0" value="input.212"/>
			</rt_info>
			<input>
				<port id="0" precision="FP32">
					<dim>1</dim>
					<dim>128</dim>
					<dim>32</dim>
					<dim>56</dim>
				</port>
				<port id="1" precision="FP32">
					<dim>1</dim>
					<dim>128</dim>
					<dim>32</dim>
					<dim>56</dim>
				</port>
			</input>
			<output>
				<port id="2" precision="FP32" names="input.212">
					<dim>1</dim>
					<dim>128</dim>
					<dim>32</dim>
					<dim>56</dim>
				</port>
			</output>
		</layer>
		<layer id="142" name="cpm.conv.0.weight" type="Const" version="opset1">
			<data element_type="f32" shape="128, 128, 3, 3" offset="6896140" size="589824"/>
			<rt_info>
				<attribute name="fused_names" version="0" value="cpm.conv.0.weight"/>
			</rt_info>
			<output>
				<port id="0" precision="FP32" names="cpm.conv.0.weight">
					<dim>128</dim>
					<dim>128</dim>
					<dim>3</dim>
					<dim>3</dim>
				</port>
			</output>
		</layer>
		<layer id="143" name="Convolution_2376" type="Convolution" version="opset1">
			<data strides="1, 1" dilations="1, 1" pads_begin="1, 1" pads_end="1, 1" auto_pad="explicit"/>
			<rt_info>
				<attribute name="fused_names" version="0" value="Convolution_2376"/>
			</rt_info>
			<input>
				<port id="0" precision="FP32">
					<dim>1</dim>
					<dim>128</dim>
					<dim>32</dim>
					<dim>56</dim>
				</port>
				<port id="1" precision="FP32">
					<dim>128</dim>
					<dim>128</dim>
					<dim>3</dim>
					<dim>3</dim>
				</port>
			</input>
			<output>
				<port id="2" precision="FP32">
					<dim>1</dim>
					<dim>128</dim>
					<dim>32</dim>
					<dim>56</dim>
				</port>
			</output>
		</layer>
		<layer id="144" name="Reshape_2396" type="Const" version="opset1">
			<data element_type="f32" shape="1, 128, 1, 1" offset="7485964" size="512"/>
			<output>
				<port id="0" precision="FP32">
					<dim>1</dim>
					<dim>128</dim>
					<dim>1</dim>
					<dim>1</dim>
				</port>
			</output>
		</layer>
		<layer id="145" name="input.216" type="Add" version="opset1">
			<data auto_broadcast="numpy"/>
			<rt_info>
				<attribute name="fused_names" version="0" value="Concat_2395, Reshape_2396, input.216"/>
			</rt_info>
			<input>
				<port id="0" precision="FP32">
					<dim>1</dim>
					<dim>128</dim>
					<dim>32</dim>
					<dim>56</dim>
				</port>
				<port id="1" precision="FP32">
					<dim>1</dim>
					<dim>128</dim>
					<dim>1</dim>
					<dim>1</dim>
				</port>
			</input>
			<output>
				<port id="2" precision="FP32" names="input.216">
					<dim>1</dim>
					<dim>128</dim>
					<dim>32</dim>
					<dim>56</dim>
				</port>
			</output>
		</layer>
		<layer id="146" name="onnx::Conv_486" type="ReLU" version="opset1">
			<rt_info>
				<attribute name="fused_names" version="0" value="onnx::Conv_486"/>
			</rt_info>
			<input>
				<port id="0" precision="FP32">
					<dim>1</dim>
					<dim>128</dim>
					<dim>32</dim>
					<dim>56</dim>
				</port>
			</input>
			<output>
				<port id="1" precision="FP32" names="onnx::Conv_486">
					<dim>1</dim>
					<dim>128</dim>
					<dim>32</dim>
					<dim>56</dim>
				</port>
			</output>
		</layer>
		<layer id="147" name="initial_stage.trunk.0.0.weight" type="Const" version="opset1">
			<data element_type="f32" shape="128, 128, 3, 3" offset="7486476" size="589824"/>
			<rt_info>
				<attribute name="fused_names" version="0" value="initial_stage.trunk.0.0.weight"/>
			</rt_info>
			<output>
				<port id="0" precision="FP32" names="initial_stage.trunk.0.0.weight">
					<dim>128</dim>
					<dim>128</dim>
					<dim>3</dim>
					<dim>3</dim>
				</port>
			</output>
		</layer>
		<layer id="148" name="Convolution_2425" type="Convolution" version="opset1">
			<data strides="1, 1" dilations="1, 1" pads_begin="1, 1" pads_end="1, 1" auto_pad="explicit"/>
			<rt_info>
				<attribute name="fused_names" version="0" value="Convolution_2425"/>
			</rt_info>
			<input>
				<port id="0" precision="FP32">
					<dim>1</dim>
					<dim>128</dim>
					<dim>32</dim>
					<dim>56</dim>
				</port>
				<port id="1" precision="FP32">
					<dim>128</dim>
					<dim>128</dim>
					<dim>3</dim>
					<dim>3</dim>
				</port>
			</input>
			<output>
				<port id="2" precision="FP32">
					<dim>1</dim>
					<dim>128</dim>
					<dim>32</dim>
					<dim>56</dim>
				</port>
			</output>
		</layer>
		<layer id="149" name="Reshape_2445" type="Const" version="opset1">
			<data element_type="f32" shape="1, 128, 1, 1" offset="8076300" size="512"/>
			<output>
				<port id="0" precision="FP32">
					<dim>1</dim>
					<dim>128</dim>
					<dim>1</dim>
					<dim>1</dim>
				</port>
			</output>
		</layer>
		<layer id="150" name="input.220" type="Add" version="opset1">
			<data auto_broadcast="numpy"/>
			<rt_info>
				<attribute name="fused_names" version="0" value="Concat_2444, Reshape_2445, input.220"/>
			</rt_info>
			<input>
				<port id="0" precision="FP32">
					<dim>1</dim>
					<dim>128</dim>
					<dim>32</dim>
					<dim>56</dim>
				</port>
				<port id="1" precision="FP32">
					<dim>1</dim>
					<dim>128</dim>
					<dim>1</dim>
					<dim>1</dim>
				</port>
			</input>
			<output>
				<port id="2" precision="FP32" names="input.220">
					<dim>1</dim>
					<dim>128</dim>
					<dim>32</dim>
					<dim>56</dim>
				</port>
			</output>
		</layer>
		<layer id="151" name="onnx::Conv_488" type="ReLU" version="opset1">
			<rt_info>
				<attribute name="fused_names" version="0" value="onnx::Conv_488"/>
			</rt_info>
			<input>
				<port id="0" precision="FP32">
					<dim>1</dim>
					<dim>128</dim>
					<dim>32</dim>
					<dim>56</dim>
				</port>
			</input>
			<output>
				<port id="1" precision="FP32" names="onnx::Conv_488">
					<dim>1</dim>
					<dim>128</dim>
					<dim>32</dim>
					<dim>56</dim>
				</port>
			</output>
		</layer>
		<layer id="152" name="initial_stage.trunk.1.0.weight" type="Const" version="opset1">
			<data element_type="f32" shape="128, 128, 3, 3" offset="8076812" size="589824"/>
			<rt_info>
				<attribute name="fused_names" version="0" value="initial_stage.trunk.1.0.weight"/>
			</rt_info>
			<output>
				<port id="0" precision="FP32" names="initial_stage.trunk.1.0.weight">
					<dim>128</dim>
					<dim>128</dim>
					<dim>3</dim>
					<dim>3</dim>
				</port>
			</output>
		</layer>
		<layer id="153" name="Convolution_2474" type="Convolution" version="opset1">
			<data strides="1, 1" dilations="1, 1" pads_begin="1, 1" pads_end="1, 1" auto_pad="explicit"/>
			<rt_info>
				<attribute name="fused_names" version="0" value="Convolution_2474"/>
			</rt_info>
			<input>
				<port id="0" precision="FP32">
					<dim>1</dim>
					<dim>128</dim>
					<dim>32</dim>
					<dim>56</dim>
				</port>
				<port id="1" precision="FP32">
					<dim>128</dim>
					<dim>128</dim>
					<dim>3</dim>
					<dim>3</dim>
				</port>
			</input>
			<output>
				<port id="2" precision="FP32">
					<dim>1</dim>
					<dim>128</dim>
					<dim>32</dim>
					<dim>56</dim>
				</port>
			</output>
		</layer>
		<layer id="154" name="Reshape_2494" type="Const" version="opset1">
			<data element_type="f32" shape="1, 128, 1, 1" offset="8666636" size="512"/>
			<output>
				<port id="0" precision="FP32">
					<dim>1</dim>
					<dim>128</dim>
					<dim>1</dim>
					<dim>1</dim>
				</port>
			</output>
		</layer>
		<layer id="155" name="input.224" type="Add" version="opset1">
			<data auto_broadcast="numpy"/>
			<rt_info>
				<attribute name="fused_names" version="0" value="Concat_2493, Reshape_2494, input.224"/>
			</rt_info>
			<input>
				<port id="0" precision="FP32">
					<dim>1</dim>
					<dim>128</dim>
					<dim>32</dim>
					<dim>56</dim>
				</port>
				<port id="1" precision="FP32">
					<dim>1</dim>
					<dim>128</dim>
					<dim>1</dim>
					<dim>1</dim>
				</port>
			</input>
			<output>
				<port id="2" precision="FP32" names="input.224">
					<dim>1</dim>
					<dim>128</dim>
					<dim>32</dim>
					<dim>56</dim>
				</port>
			</output>
		</layer>
		<layer id="156" name="onnx::Conv_490" type="ReLU" version="opset1">
			<rt_info>
				<attribute name="fused_names" version="0" value="onnx::Conv_490"/>
			</rt_info>
			<input>
				<port id="0" precision="FP32">
					<dim>1</dim>
					<dim>128</dim>
					<dim>32</dim>
					<dim>56</dim>
				</port>
			</input>
			<output>
				<port id="1" precision="FP32" names="onnx::Conv_490">
					<dim>1</dim>
					<dim>128</dim>
					<dim>32</dim>
					<dim>56</dim>
				</port>
			</output>
		</layer>
		<layer id="157" name="initial_stage.trunk.2.0.weight" type="Const" version="opset1">
			<data element_type="f32" shape="128, 128, 3, 3" offset="8667148" size="589824"/>
			<rt_info>
				<attribute name="fused_names" version="0" value="initial_stage.trunk.2.0.weight"/>
			</rt_info>
			<output>
				<port id="0" precision="FP32" names="initial_stage.trunk.2.0.weight">
					<dim>128</dim>
					<dim>128</dim>
					<dim>3</dim>
					<dim>3</dim>
				</port>
			</output>
		</layer>
		<layer id="158" name="Convolution_2523" type="Convolution" version="opset1">
			<data strides="1, 1" dilations="1, 1" pads_begin="1, 1" pads_end="1, 1" auto_pad="explicit"/>
			<rt_info>
				<attribute name="fused_names" version="0" value="Convolution_2523"/>
			</rt_info>
			<input>
				<port id="0" precision="FP32">
					<dim>1</dim>
					<dim>128</dim>
					<dim>32</dim>
					<dim>56</dim>
				</port>
				<port id="1" precision="FP32">
					<dim>128</dim>
					<dim>128</dim>
					<dim>3</dim>
					<dim>3</dim>
				</port>
			</input>
			<output>
				<port id="2" precision="FP32">
					<dim>1</dim>
					<dim>128</dim>
					<dim>32</dim>
					<dim>56</dim>
				</port>
			</output>
		</layer>
		<layer id="159" name="Reshape_2543" type="Const" version="opset1">
			<data element_type="f32" shape="1, 128, 1, 1" offset="9256972" size="512"/>
			<output>
				<port id="0" precision="FP32">
					<dim>1</dim>
					<dim>128</dim>
					<dim>1</dim>
					<dim>1</dim>
				</port>
			</output>
		</layer>
		<layer id="160" name="input.228" type="Add" version="opset1">
			<data auto_broadcast="numpy"/>
			<rt_info>
				<attribute name="fused_names" version="0" value="Concat_2542, Reshape_2543, input.228"/>
			</rt_info>
			<input>
				<port id="0" precision="FP32">
					<dim>1</dim>
					<dim>128</dim>
					<dim>32</dim>
					<dim>56</dim>
				</port>
				<port id="1" precision="FP32">
					<dim>1</dim>
					<dim>128</dim>
					<dim>1</dim>
					<dim>1</dim>
				</port>
			</input>
			<output>
				<port id="2" precision="FP32" names="input.228">
					<dim>1</dim>
					<dim>128</dim>
					<dim>32</dim>
					<dim>56</dim>
				</port>
			</output>
		</layer>
		<layer id="161" name="onnx::Conv_492" type="ReLU" version="opset1">
			<rt_info>
				<attribute name="fused_names" version="0" value="onnx::Conv_492"/>
			</rt_info>
			<input>
				<port id="0" precision="FP32">
					<dim>1</dim>
					<dim>128</dim>
					<dim>32</dim>
					<dim>56</dim>
				</port>
			</input>
			<output>
				<port id="1" precision="FP32" names="onnx::Conv_492">
					<dim>1</dim>
					<dim>128</dim>
					<dim>32</dim>
					<dim>56</dim>
				</port>
			</output>
		</layer>
		<layer id="162" name="initial_stage.heatmaps.0.0.weight" type="Const" version="opset1">
			<data element_type="f32" shape="512, 128, 1, 1" offset="9257484" size="262144"/>
			<rt_info>
				<attribute name="fused_names" version="0" value="initial_stage.heatmaps.0.0.weight"/>
			</rt_info>
			<output>
				<port id="0" precision="FP32" names="initial_stage.heatmaps.0.0.weight">
					<dim>512</dim>
					<dim>128</dim>
					<dim>1</dim>
					<dim>1</dim>
				</port>
			</output>
		</layer>
		<layer id="163" name="Convolution_2572" type="Convolution" version="opset1">
			<data strides="1, 1" dilations="1, 1" pads_begin="0, 0" pads_end="0, 0" auto_pad="explicit"/>
			<rt_info>
				<attribute name="fused_names" version="0" value="Convolution_2572"/>
			</rt_info>
			<input>
				<port id="0" precision="FP32">
					<dim>1</dim>
					<dim>128</dim>
					<dim>32</dim>
					<dim>56</dim>
				</port>
				<port id="1" precision="FP32">
					<dim>512</dim>
					<dim>128</dim>
					<dim>1</dim>
					<dim>1</dim>
				</port>
			</input>
			<output>
				<port id="2" precision="FP32">
					<dim>1</dim>
					<dim>512</dim>
					<dim>32</dim>
					<dim>56</dim>
				</port>
			</output>
		</layer>
		<layer id="164" name="Reshape_2592" type="Const" version="opset1">
			<data element_type="f32" shape="1, 512, 1, 1" offset="9519628" size="2048"/>
			<output>
				<port id="0" precision="FP32">
					<dim>1</dim>
					<dim>512</dim>
					<dim>1</dim>
					<dim>1</dim>
				</port>
			</output>
		</layer>
		<layer id="165" name="input.232" type="Add" version="opset1">
			<data auto_broadcast="numpy"/>
			<rt_info>
				<attribute name="fused_names" version="0" value="Concat_2591, Reshape_2592, input.232"/>
			</rt_info>
			<input>
				<port id="0" precision="FP32">
					<dim>1</dim>
					<dim>512</dim>
					<dim>32</dim>
					<dim>56</dim>
				</port>
				<port id="1" precision="FP32">
					<dim>1</dim>
					<dim>512</dim>
					<dim>1</dim>
					<dim>1</dim>
				</port>
			</input>
			<output>
				<port id="2" precision="FP32" names="input.232">
					<dim>1</dim>
					<dim>512</dim>
					<dim>32</dim>
					<dim>56</dim>
				</port>
			</output>
		</layer>
		<layer id="166" name="onnx::Conv_494" type="ReLU" version="opset1">
			<rt_info>
				<attribute name="fused_names" version="0" value="onnx::Conv_494"/>
			</rt_info>
			<input>
				<port id="0" precision="FP32">
					<dim>1</dim>
					<dim>512</dim>
					<dim>32</dim>
					<dim>56</dim>
				</port>
			</input>
			<output>
				<port id="1" precision="FP32" names="onnx::Conv_494">
					<dim>1</dim>
					<dim>512</dim>
					<dim>32</dim>
					<dim>56</dim>
				</port>
			</output>
		</layer>
		<layer id="167" name="initial_stage.heatmaps.1.0.weight" type="Const" version="opset1">
			<data element_type="f32" shape="19, 512, 1, 1" offset="9521676" size="38912"/>
			<rt_info>
				<attribute name="fused_names" version="0" value="initial_stage.heatmaps.1.0.weight"/>
			</rt_info>
			<output>
				<port id="0" precision="FP32" names="initial_stage.heatmaps.1.0.weight">
					<dim>19</dim>
					<dim>512</dim>
					<dim>1</dim>
					<dim>1</dim>
				</port>
			</output>
		</layer>
		<layer id="168" name="Convolution_2621" type="Convolution" version="opset1">
			<data strides="1, 1" dilations="1, 1" pads_begin="0, 0" pads_end="0, 0" auto_pad="explicit"/>
			<rt_info>
				<attribute name="fused_names" version="0" value="Convolution_2621"/>
			</rt_info>
			<input>
				<port id="0" precision="FP32">
					<dim>1</dim>
					<dim>512</dim>
					<dim>32</dim>
					<dim>56</dim>
				</port>
				<port id="1" precision="FP32">
					<dim>19</dim>
					<dim>512</dim>
					<dim>1</dim>
					<dim>1</dim>
				</port>
			</input>
			<output>
				<port id="2" precision="FP32">
					<dim>1</dim>
					<dim>19</dim>
					<dim>32</dim>
					<dim>56</dim>
				</port>
			</output>
		</layer>
		<layer id="169" name="Reshape_2641" type="Const" version="opset1">
			<data element_type="f32" shape="1, 19, 1, 1" offset="9560588" size="76"/>
			<output>
				<port id="0" precision="FP32">
					<dim>1</dim>
					<dim>19</dim>
					<dim>1</dim>
					<dim>1</dim>
				</port>
			</output>
		</layer>
		<layer id="170" name="onnx::Concat_495" type="Add" version="opset1">
			<data auto_broadcast="numpy"/>
			<rt_info>
				<attribute name="fused_names" version="0" value="Concat_2640, Reshape_2641, onnx::Concat_495"/>
			</rt_info>
			<input>
				<port id="0" precision="FP32">
					<dim>1</dim>
					<dim>19</dim>
					<dim>32</dim>
					<dim>56</dim>
				</port>
				<port id="1" precision="FP32">
					<dim>1</dim>
					<dim>19</dim>
					<dim>1</dim>
					<dim>1</dim>
				</port>
			</input>
			<output>
				<port id="2" precision="FP32" names="onnx::Concat_495">
					<dim>1</dim>
					<dim>19</dim>
					<dim>32</dim>
					<dim>56</dim>
				</port>
			</output>
		</layer>
		<layer id="171" name="initial_stage.pafs.0.0.weight" type="Const" version="opset1">
			<data element_type="f32" shape="512, 128, 1, 1" offset="9560664" size="262144"/>
			<rt_info>
				<attribute name="fused_names" version="0" value="initial_stage.pafs.0.0.weight"/>
			</rt_info>
			<output>
				<port id="0" precision="FP32" names="initial_stage.pafs.0.0.weight">
					<dim>512</dim>
					<dim>128</dim>
					<dim>1</dim>
					<dim>1</dim>
				</port>
			</output>
		</layer>
		<layer id="172" name="Convolution_2669" type="Convolution" version="opset1">
			<data strides="1, 1" dilations="1, 1" pads_begin="0, 0" pads_end="0, 0" auto_pad="explicit"/>
			<rt_info>
				<attribute name="fused_names" version="0" value="Convolution_2669"/>
			</rt_info>
			<input>
				<port id="0" precision="FP32">
					<dim>1</dim>
					<dim>128</dim>
					<dim>32</dim>
					<dim>56</dim>
				</port>
				<port id="1" precision="FP32">
					<dim>512</dim>
					<dim>128</dim>
					<dim>1</dim>
					<dim>1</dim>
				</port>
			</input>
			<output>
				<port id="2" precision="FP32">
					<dim>1</dim>
					<dim>512</dim>
					<dim>32</dim>
					<dim>56</dim>
				</port>
			</output>
		</layer>
		<layer id="173" name="Reshape_2689" type="Const" version="opset1">
			<data element_type="f32" shape="1, 512, 1, 1" offset="9822808" size="2048"/>
			<output>
				<port id="0" precision="FP32">
					<dim>1</dim>
					<dim>512</dim>
					<dim>1</dim>
					<dim>1</dim>
				</port>
			</output>
		</layer>
		<layer id="174" name="input.236" type="Add" version="opset1">
			<data auto_broadcast="numpy"/>
			<rt_info>
				<attribute name="fused_names" version="0" value="Concat_2688, Reshape_2689, input.236"/>
			</rt_info>
			<input>
				<port id="0" precision="FP32">
					<dim>1</dim>
					<dim>512</dim>
					<dim>32</dim>
					<dim>56</dim>
				</port>
				<port id="1" precision="FP32">
					<dim>1</dim>
					<dim>512</dim>
					<dim>1</dim>
					<dim>1</dim>
				</port>
			</input>
			<output>
				<port id="2" precision="FP32" names="input.236">
					<dim>1</dim>
					<dim>512</dim>
					<dim>32</dim>
					<dim>56</dim>
				</port>
			</output>
		</layer>
		<layer id="175" name="onnx::Conv_497" type="ReLU" version="opset1">
			<rt_info>
				<attribute name="fused_names" version="0" value="onnx::Conv_497"/>
			</rt_info>
			<input>
				<port id="0" precision="FP32">
					<dim>1</dim>
					<dim>512</dim>
					<dim>32</dim>
					<dim>56</dim>
				</port>
			</input>
			<output>
				<port id="1" precision="FP32" names="onnx::Conv_497">
					<dim>1</dim>
					<dim>512</dim>
					<dim>32</dim>
					<dim>56</dim>
				</port>
			</output>
		</layer>
		<layer id="176" name="initial_stage.pafs.1.0.weight" type="Const" version="opset1">
			<data element_type="f32" shape="38, 512, 1, 1" offset="9824856" size="77824"/>
			<rt_info>
				<attribute name="fused_names" version="0" value="initial_stage.pafs.1.0.weight"/>
			</rt_info>
			<output>
				<port id="0" precision="FP32" names="initial_stage.pafs.1.0.weight">
					<dim>38</dim>
					<dim>512</dim>
					<dim>1</dim>
					<dim>1</dim>
				</port>
			</output>
		</layer>
		<layer id="177" name="Convolution_2718" type="Convolution" version="opset1">
			<data strides="1, 1" dilations="1, 1" pads_begin="0, 0" pads_end="0, 0" auto_pad="explicit"/>
			<rt_info>
				<attribute name="fused_names" version="0" value="Convolution_2718"/>
			</rt_info>
			<input>
				<port id="0" precision="FP32">
					<dim>1</dim>
					<dim>512</dim>
					<dim>32</dim>
					<dim>56</dim>
				</port>
				<port id="1" precision="FP32">
					<dim>38</dim>
					<dim>512</dim>
					<dim>1</dim>
					<dim>1</dim>
				</port>
			</input>
			<output>
				<port id="2" precision="FP32">
					<dim>1</dim>
					<dim>38</dim>
					<dim>32</dim>
					<dim>56</dim>
				</port>
			</output>
		</layer>
		<layer id="178" name="Reshape_2738" type="Const" version="opset1">
			<data element_type="f32" shape="1, 38, 1, 1" offset="9902680" size="152"/>
			<output>
				<port id="0" precision="FP32">
					<dim>1</dim>
					<dim>38</dim>
					<dim>1</dim>
					<dim>1</dim>
				</port>
			</output>
		</layer>
		<layer id="179" name="onnx::Concat_498" type="Add" version="opset1">
			<data auto_broadcast="numpy"/>
			<rt_info>
				<attribute name="fused_names" version="0" value="Concat_2737, Reshape_2738, onnx::Concat_498"/>
			</rt_info>
			<input>
				<port id="0" precision="FP32">
					<dim>1</dim>
					<dim>38</dim>
					<dim>32</dim>
					<dim>56</dim>
				</port>
				<port id="1" precision="FP32">
					<dim>1</dim>
					<dim>38</dim>
					<dim>1</dim>
					<dim>1</dim>
				</port>
			</input>
			<output>
				<port id="2" precision="FP32" names="onnx::Concat_498">
					<dim>1</dim>
					<dim>38</dim>
					<dim>32</dim>
					<dim>56</dim>
				</port>
			</output>
		</layer>
		<layer id="180" name="input.240" type="Concat" version="opset1">
			<data axis="1"/>
			<rt_info>
				<attribute name="fused_names" version="0" value="input.240"/>
			</rt_info>
			<input>
				<port id="0" precision="FP32">
					<dim>1</dim>
					<dim>128</dim>
					<dim>32</dim>
					<dim>56</dim>
				</port>
				<port id="1" precision="FP32">
					<dim>1</dim>
					<dim>19</dim>
					<dim>32</dim>
					<dim>56</dim>
				</port>
				<port id="2" precision="FP32">
					<dim>1</dim>
					<dim>38</dim>
					<dim>32</dim>
					<dim>56</dim>
				</port>
			</input>
			<output>
				<port id="3" precision="FP32" names="input.240">
					<dim>1</dim>
					<dim>185</dim>
					<dim>32</dim>
					<dim>56</dim>
				</port>
			</output>
		</layer>
		<layer id="181" name="refinement_stages.0.trunk.0.initial.0.weight" type="Const" version="opset1">
			<data element_type="f32" shape="128, 185, 1, 1" offset="9902832" size="94720"/>
			<rt_info>
				<attribute name="fused_names" version="0" value="refinement_stages.0.trunk.0.initial.0.weight"/>
			</rt_info>
			<output>
				<port id="0" precision="FP32" names="refinement_stages.0.trunk.0.initial.0.weight">
					<dim>128</dim>
					<dim>185</dim>
					<dim>1</dim>
					<dim>1</dim>
				</port>
			</output>
		</layer>
		<layer id="182" name="Convolution_2767" type="Convolution" version="opset1">
			<data strides="1, 1" dilations="1, 1" pads_begin="0, 0" pads_end="0, 0" auto_pad="explicit"/>
			<rt_info>
				<attribute name="fused_names" version="0" value="Convolution_2767"/>
			</rt_info>
			<input>
				<port id="0" precision="FP32">
					<dim>1</dim>
					<dim>185</dim>
					<dim>32</dim>
					<dim>56</dim>
				</port>
				<port id="1" precision="FP32">
					<dim>128</dim>
					<dim>185</dim>
					<dim>1</dim>
					<dim>1</dim>
				</port>
			</input>
			<output>
				<port id="2" precision="FP32">
					<dim>1</dim>
					<dim>128</dim>
					<dim>32</dim>
					<dim>56</dim>
				</port>
			</output>
		</layer>
		<layer id="183" name="Reshape_2787" type="Const" version="opset1">
			<data element_type="f32" shape="1, 128, 1, 1" offset="9997552" size="512"/>
			<output>
				<port id="0" precision="FP32">
					<dim>1</dim>
					<dim>128</dim>
					<dim>1</dim>
					<dim>1</dim>
				</port>
			</output>
		</layer>
		<layer id="184" name="input.244" type="Add" version="opset1">
			<data auto_broadcast="numpy"/>
			<rt_info>
				<attribute name="fused_names" version="0" value="Concat_2786, Reshape_2787, input.244"/>
			</rt_info>
			<input>
				<port id="0" precision="FP32">
					<dim>1</dim>
					<dim>128</dim>
					<dim>32</dim>
					<dim>56</dim>
				</port>
				<port id="1" precision="FP32">
					<dim>1</dim>
					<dim>128</dim>
					<dim>1</dim>
					<dim>1</dim>
				</port>
			</input>
			<output>
				<port id="2" precision="FP32" names="input.244">
					<dim>1</dim>
					<dim>128</dim>
					<dim>32</dim>
					<dim>56</dim>
				</port>
			</output>
		</layer>
		<layer id="185" name="onnx::Conv_501" type="ReLU" version="opset1">
			<rt_info>
				<attribute name="fused_names" version="0" value="onnx::Conv_501"/>
			</rt_info>
			<input>
				<port id="0" precision="FP32">
					<dim>1</dim>
					<dim>128</dim>
					<dim>32</dim>
					<dim>56</dim>
				</port>
			</input>
			<output>
				<port id="1" precision="FP32" names="onnx::Conv_501">
					<dim>1</dim>
					<dim>128</dim>
					<dim>32</dim>
					<dim>56</dim>
				</port>
			</output>
		</layer>
		<layer id="186" name="onnx::Conv_700" type="Const" version="opset1">
			<data element_type="f32" shape="128, 128, 3, 3" offset="9998064" size="589824"/>
			<rt_info>
				<attribute name="fused_names" version="0" value="onnx::Conv_700"/>
			</rt_info>
			<output>
				<port id="0" precision="FP32" names="onnx::Conv_700">
					<dim>128</dim>
					<dim>128</dim>
					<dim>3</dim>
					<dim>3</dim>
				</port>
			</output>
		</layer>
		<layer id="187" name="Convolution_2816" type="Convolution" version="opset1">
			<data strides="1, 1" dilations="1, 1" pads_begin="1, 1" pads_end="1, 1" auto_pad="explicit"/>
			<rt_info>
				<attribute name="fused_names" version="0" value="Convolution_2816"/>
			</rt_info>
			<input>
				<port id="0" precision="FP32">
					<dim>1</dim>
					<dim>128</dim>
					<dim>32</dim>
					<dim>56</dim>
				</port>
				<port id="1" precision="FP32">
					<dim>128</dim>
					<dim>128</dim>
					<dim>3</dim>
					<dim>3</dim>
				</port>
			</input>
			<output>
				<port id="2" precision="FP32">
					<dim>1</dim>
					<dim>128</dim>
					<dim>32</dim>
					<dim>56</dim>
				</port>
			</output>
		</layer>
		<layer id="188" name="Reshape_2836" type="Const" version="opset1">
			<data element_type="f32" shape="1, 128, 1, 1" offset="10587888" size="512"/>
			<output>
				<port id="0" precision="FP32">
					<dim>1</dim>
					<dim>128</dim>
					<dim>1</dim>
					<dim>1</dim>
				</port>
			</output>
		</layer>
		<layer id="189" name="input.252" type="Add" version="opset1">
			<data auto_broadcast="numpy"/>
			<rt_info>
				<attribute name="fused_names" version="0" value="Concat_2835, Reshape_2836, input.252"/>
			</rt_info>
			<input>
				<port id="0" precision="FP32">
					<dim>1</dim>
					<dim>128</dim>
					<dim>32</dim>
					<dim>56</dim>
				</port>
				<port id="1" precision="FP32">
					<dim>1</dim>
					<dim>128</dim>
					<dim>1</dim>
					<dim>1</dim>
				</port>
			</input>
			<output>
				<port id="2" precision="FP32" names="input.252">
					<dim>1</dim>
					<dim>128</dim>
					<dim>32</dim>
					<dim>56</dim>
				</port>
			</output>
		</layer>
		<layer id="190" name="onnx::Conv_504" type="ReLU" version="opset1">
			<rt_info>
				<attribute name="fused_names" version="0" value="onnx::Conv_504"/>
			</rt_info>
			<input>
				<port id="0" precision="FP32">
					<dim>1</dim>
					<dim>128</dim>
					<dim>32</dim>
					<dim>56</dim>
				</port>
			</input>
			<output>
				<port id="1" precision="FP32" names="onnx::Conv_504">
					<dim>1</dim>
					<dim>128</dim>
					<dim>32</dim>
					<dim>56</dim>
				</port>
			</output>
		</layer>
		<layer id="191" name="onnx::Conv_703" type="Const" version="opset1">
			<data element_type="f32" shape="128, 128, 3, 3" offset="10588400" size="589824"/>
			<rt_info>
				<attribute name="fused_names" version="0" value="onnx::Conv_703"/>
			</rt_info>
			<output>
				<port id="0" precision="FP32" names="onnx::Conv_703">
					<dim>128</dim>
					<dim>128</dim>
					<dim>3</dim>
					<dim>3</dim>
				</port>
			</output>
		</layer>
		<layer id="192" name="Convolution_2865" type="Convolution" version="opset1">
			<data strides="1, 1" dilations="2, 2" pads_begin="2, 2" pads_end="2, 2" auto_pad="explicit"/>
			<rt_info>
				<attribute name="fused_names" version="0" value="Convolution_2865"/>
			</rt_info>
			<input>
				<port id="0" precision="FP32">
					<dim>1</dim>
					<dim>128</dim>
					<dim>32</dim>
					<dim>56</dim>
				</port>
				<port id="1" precision="FP32">
					<dim>128</dim>
					<dim>128</dim>
					<dim>3</dim>
					<dim>3</dim>
				</port>
			</input>
			<output>
				<port id="2" precision="FP32">
					<dim>1</dim>
					<dim>128</dim>
					<dim>32</dim>
					<dim>56</dim>
				</port>
			</output>
		</layer>
		<layer id="193" name="Reshape_2885" type="Const" version="opset1">
			<data element_type="f32" shape="1, 128, 1, 1" offset="11178224" size="512"/>
			<output>
				<port id="0" precision="FP32">
					<dim>1</dim>
					<dim>128</dim>
					<dim>1</dim>
					<dim>1</dim>
				</port>
			</output>
		</layer>
		<layer id="194" name="input.260" type="Add" version="opset1">
			<data auto_broadcast="numpy"/>
			<rt_info>
				<attribute name="fused_names" version="0" value="Concat_2884, Reshape_2885, input.260"/>
			</rt_info>
			<input>
				<port id="0" precision="FP32">
					<dim>1</dim>
					<dim>128</dim>
					<dim>32</dim>
					<dim>56</dim>
				</port>
				<port id="1" precision="FP32">
					<dim>1</dim>
					<dim>128</dim>
					<dim>1</dim>
					<dim>1</dim>
				</port>
			</input>
			<output>
				<port id="2" precision="FP32" names="input.260">
					<dim>1</dim>
					<dim>128</dim>
					<dim>32</dim>
					<dim>56</dim>
				</port>
			</output>
		</layer>
		<layer id="195" name="onnx::Add_507" type="ReLU" version="opset1">
			<rt_info>
				<attribute name="fused_names" version="0" value="onnx::Add_507"/>
			</rt_info>
			<input>
				<port id="0" precision="FP32">
					<dim>1</dim>
					<dim>128</dim>
					<dim>32</dim>
					<dim>56</dim>
				</port>
			</input>
			<output>
				<port id="1" precision="FP32" names="onnx::Add_507">
					<dim>1</dim>
					<dim>128</dim>
					<dim>32</dim>
					<dim>56</dim>
				</port>
			</output>
		</layer>
		<layer id="196" name="input.264" type="Add" version="opset1">
			<data auto_broadcast="numpy"/>
			<rt_info>
				<attribute name="fused_names" version="0" value="input.264"/>
			</rt_info>
			<input>
				<port id="0" precision="FP32">
					<dim>1</dim>
					<dim>128</dim>
					<dim>32</dim>
					<dim>56</dim>
				</port>
				<port id="1" precision="FP32">
					<dim>1</dim>
					<dim>128</dim>
					<dim>32</dim>
					<dim>56</dim>
				</port>
			</input>
			<output>
				<port id="2" precision="FP32" names="input.264">
					<dim>1</dim>
					<dim>128</dim>
					<dim>32</dim>
					<dim>56</dim>
				</port>
			</output>
		</layer>
		<layer id="197" name="refinement_stages.0.trunk.1.initial.0.weight" type="Const" version="opset1">
			<data element_type="f32" shape="128, 128, 1, 1" offset="11178736" size="65536"/>
			<rt_info>
				<attribute name="fused_names" version="0" value="refinement_stages.0.trunk.1.initial.0.weight"/>
			</rt_info>
			<output>
				<port id="0" precision="FP32" names="refinement_stages.0.trunk.1.initial.0.weight">
					<dim>128</dim>
					<dim>128</dim>
					<dim>1</dim>
					<dim>1</dim>
				</port>
			</output>
		</layer>
		<layer id="198" name="Convolution_2915" type="Convolution" version="opset1">
			<data strides="1, 1" dilations="1, 1" pads_begin="0, 0" pads_end="0, 0" auto_pad="explicit"/>
			<rt_info>
				<attribute name="fused_names" version="0" value="Convolution_2915"/>
			</rt_info>
			<input>
				<port id="0" precision="FP32">
					<dim>1</dim>
					<dim>128</dim>
					<dim>32</dim>
					<dim>56</dim>
				</port>
				<port id="1" precision="FP32">
					<dim>128</dim>
					<dim>128</dim>
					<dim>1</dim>
					<dim>1</dim>
				</port>
			</input>
			<output>
				<port id="2" precision="FP32">
					<dim>1</dim>
					<dim>128</dim>
					<dim>32</dim>
					<dim>56</dim>
				</port>
			</output>
		</layer>
		<layer id="199" name="Reshape_2935" type="Const" version="opset1">
			<data element_type="f32" shape="1, 128, 1, 1" offset="11244272" size="512"/>
			<output>
				<port id="0" precision="FP32">
					<dim>1</dim>
					<dim>128</dim>
					<dim>1</dim>
					<dim>1</dim>
				</port>
			</output>
		</layer>
		<layer id="200" name="input.268" type="Add" version="opset1">
			<data auto_broadcast="numpy"/>
			<rt_info>
				<attribute name="fused_names" version="0" value="Concat_2934, Reshape_2935, input.268"/>
			</rt_info>
			<input>
				<port id="0" precision="FP32">
					<dim>1</dim>
					<dim>128</dim>
					<dim>32</dim>
					<dim>56</dim>
				</port>
				<port id="1" precision="FP32">
					<dim>1</dim>
					<dim>128</dim>
					<dim>1</dim>
					<dim>1</dim>
				</port>
			</input>
			<output>
				<port id="2" precision="FP32" names="input.268">
					<dim>1</dim>
					<dim>128</dim>
					<dim>32</dim>
					<dim>56</dim>
				</port>
			</output>
		</layer>
		<layer id="201" name="onnx::Conv_510" type="ReLU" version="opset1">
			<rt_info>
				<attribute name="fused_names" version="0" value="onnx::Conv_510"/>
			</rt_info>
			<input>
				<port id="0" precision="FP32">
					<dim>1</dim>
					<dim>128</dim>
					<dim>32</dim>
					<dim>56</dim>
				</port>
			</input>
			<output>
				<port id="1" precision="FP32" names="onnx::Conv_510">
					<dim>1</dim>
					<dim>128</dim>
					<dim>32</dim>
					<dim>56</dim>
				</port>
			</output>
		</layer>
		<layer id="202" name="onnx::Conv_706" type="Const" version="opset1">
			<data element_type="f32" shape="128, 128, 3, 3" offset="11244784" size="589824"/>
			<rt_info>
				<attribute name="fused_names" version="0" value="onnx::Conv_706"/>
			</rt_info>
			<output>
				<port id="0" precision="FP32" names="onnx::Conv_706">
					<dim>128</dim>
					<dim>128</dim>
					<dim>3</dim>
					<dim>3</dim>
				</port>
			</output>
		</layer>
		<layer id="203" name="Convolution_2964" type="Convolution" version="opset1">
			<data strides="1, 1" dilations="1, 1" pads_begin="1, 1" pads_end="1, 1" auto_pad="explicit"/>
			<rt_info>
				<attribute name="fused_names" version="0" value="Convolution_2964"/>
			</rt_info>
			<input>
				<port id="0" precision="FP32">
					<dim>1</dim>
					<dim>128</dim>
					<dim>32</dim>
					<dim>56</dim>
				</port>
				<port id="1" precision="FP32">
					<dim>128</dim>
					<dim>128</dim>
					<dim>3</dim>
					<dim>3</dim>
				</port>
			</input>
			<output>
				<port id="2" precision="FP32">
					<dim>1</dim>
					<dim>128</dim>
					<dim>32</dim>
					<dim>56</dim>
				</port>
			</output>
		</layer>
		<layer id="204" name="Reshape_2984" type="Const" version="opset1">
			<data element_type="f32" shape="1, 128, 1, 1" offset="11834608" size="512"/>
			<output>
				<port id="0" precision="FP32">
					<dim>1</dim>
					<dim>128</dim>
					<dim>1</dim>
					<dim>1</dim>
				</port>
			</output>
		</layer>
		<layer id="205" name="input.276" type="Add" version="opset1">
			<data auto_broadcast="numpy"/>
			<rt_info>
				<attribute name="fused_names" version="0" value="Concat_2983, Reshape_2984, input.276"/>
			</rt_info>
			<input>
				<port id="0" precision="FP32">
					<dim>1</dim>
					<dim>128</dim>
					<dim>32</dim>
					<dim>56</dim>
				</port>
				<port id="1" precision="FP32">
					<dim>1</dim>
					<dim>128</dim>
					<dim>1</dim>
					<dim>1</dim>
				</port>
			</input>
			<output>
				<port id="2" precision="FP32" names="input.276">
					<dim>1</dim>
					<dim>128</dim>
					<dim>32</dim>
					<dim>56</dim>
				</port>
			</output>
		</layer>
		<layer id="206" name="onnx::Conv_513" type="ReLU" version="opset1">
			<rt_info>
				<attribute name="fused_names" version="0" value="onnx::Conv_513"/>
			</rt_info>
			<input>
				<port id="0" precision="FP32">
					<dim>1</dim>
					<dim>128</dim>
					<dim>32</dim>
					<dim>56</dim>
				</port>
			</input>
			<output>
				<port id="1" precision="FP32" names="onnx::Conv_513">
					<dim>1</dim>
					<dim>128</dim>
					<dim>32</dim>
					<dim>56</dim>
				</port>
			</output>
		</layer>
		<layer id="207" name="onnx::Conv_709" type="Const" version="opset1">
			<data element_type="f32" shape="128, 128, 3, 3" offset="11835120" size="589824"/>
			<rt_info>
				<attribute name="fused_names" version="0" value="onnx::Conv_709"/>
			</rt_info>
			<output>
				<port id="0" precision="FP32" names="onnx::Conv_709">
					<dim>128</dim>
					<dim>128</dim>
					<dim>3</dim>
					<dim>3</dim>
				</port>
			</output>
		</layer>
		<layer id="208" name="Convolution_3013" type="Convolution" version="opset1">
			<data strides="1, 1" dilations="2, 2" pads_begin="2, 2" pads_end="2, 2" auto_pad="explicit"/>
			<rt_info>
				<attribute name="fused_names" version="0" value="Convolution_3013"/>
			</rt_info>
			<input>
				<port id="0" precision="FP32">
					<dim>1</dim>
					<dim>128</dim>
					<dim>32</dim>
					<dim>56</dim>
				</port>
				<port id="1" precision="FP32">
					<dim>128</dim>
					<dim>128</dim>
					<dim>3</dim>
					<dim>3</dim>
				</port>
			</input>
			<output>
				<port id="2" precision="FP32">
					<dim>1</dim>
					<dim>128</dim>
					<dim>32</dim>
					<dim>56</dim>
				</port>
			</output>
		</layer>
		<layer id="209" name="Reshape_3033" type="Const" version="opset1">
			<data element_type="f32" shape="1, 128, 1, 1" offset="12424944" size="512"/>
			<output>
				<port id="0" precision="FP32">
					<dim>1</dim>
					<dim>128</dim>
					<dim>1</dim>
					<dim>1</dim>
				</port>
			</output>
		</layer>
		<layer id="210" name="input.284" type="Add" version="opset1">
			<data auto_broadcast="numpy"/>
			<rt_info>
				<attribute name="fused_names" version="0" value="Concat_3032, Reshape_3033, input.284"/>
			</rt_info>
			<input>
				<port id="0" precision="FP32">
					<dim>1</dim>
					<dim>128</dim>
					<dim>32</dim>
					<dim>56</dim>
				</port>
				<port id="1" precision="FP32">
					<dim>1</dim>
					<dim>128</dim>
					<dim>1</dim>
					<dim>1</dim>
				</port>
			</input>
			<output>
				<port id="2" precision="FP32" names="input.284">
					<dim>1</dim>
					<dim>128</dim>
					<dim>32</dim>
					<dim>56</dim>
				</port>
			</output>
		</layer>
		<layer id="211" name="onnx::Add_516" type="ReLU" version="opset1">
			<rt_info>
				<attribute name="fused_names" version="0" value="onnx::Add_516"/>
			</rt_info>
			<input>
				<port id="0" precision="FP32">
					<dim>1</dim>
					<dim>128</dim>
					<dim>32</dim>
					<dim>56</dim>
				</port>
			</input>
			<output>
				<port id="1" precision="FP32" names="onnx::Add_516">
					<dim>1</dim>
					<dim>128</dim>
					<dim>32</dim>
					<dim>56</dim>
				</port>
			</output>
		</layer>
		<layer id="212" name="input.288" type="Add" version="opset1">
			<data auto_broadcast="numpy"/>
			<rt_info>
				<attribute name="fused_names" version="0" value="input.288"/>
			</rt_info>
			<input>
				<port id="0" precision="FP32">
					<dim>1</dim>
					<dim>128</dim>
					<dim>32</dim>
					<dim>56</dim>
				</port>
				<port id="1" precision="FP32">
					<dim>1</dim>
					<dim>128</dim>
					<dim>32</dim>
					<dim>56</dim>
				</port>
			</input>
			<output>
				<port id="2" precision="FP32" names="input.288">
					<dim>1</dim>
					<dim>128</dim>
					<dim>32</dim>
					<dim>56</dim>
				</port>
			</output>
		</layer>
		<layer id="213" name="refinement_stages.0.trunk.2.initial.0.weight" type="Const" version="opset1">
			<data element_type="f32" shape="128, 128, 1, 1" offset="12425456" size="65536"/>
			<rt_info>
				<attribute name="fused_names" version="0" value="refinement_stages.0.trunk.2.initial.0.weight"/>
			</rt_info>
			<output>
				<port id="0" precision="FP32" names="refinement_stages.0.trunk.2.initial.0.weight">
					<dim>128</dim>
					<dim>128</dim>
					<dim>1</dim>
					<dim>1</dim>
				</port>
			</output>
		</layer>
		<layer id="214" name="Convolution_3063" type="Convolution" version="opset1">
			<data strides="1, 1" dilations="1, 1" pads_begin="0, 0" pads_end="0, 0" auto_pad="explicit"/>
			<rt_info>
				<attribute name="fused_names" version="0" value="Convolution_3063"/>
			</rt_info>
			<input>
				<port id="0" precision="FP32">
					<dim>1</dim>
					<dim>128</dim>
					<dim>32</dim>
					<dim>56</dim>
				</port>
				<port id="1" precision="FP32">
					<dim>128</dim>
					<dim>128</dim>
					<dim>1</dim>
					<dim>1</dim>
				</port>
			</input>
			<output>
				<port id="2" precision="FP32">
					<dim>1</dim>
					<dim>128</dim>
					<dim>32</dim>
					<dim>56</dim>
				</port>
			</output>
		</layer>
		<layer id="215" name="Reshape_3083" type="Const" version="opset1">
			<data element_type="f32" shape="1, 128, 1, 1" offset="12490992" size="512"/>
			<output>
				<port id="0" precision="FP32">
					<dim>1</dim>
					<dim>128</dim>
					<dim>1</dim>
					<dim>1</dim>
				</port>
			</output>
		</layer>
		<layer id="216" name="input.292" type="Add" version="opset1">
			<data auto_broadcast="numpy"/>
			<rt_info>
				<attribute name="fused_names" version="0" value="Concat_3082, Reshape_3083, input.292"/>
			</rt_info>
			<input>
				<port id="0" precision="FP32">
					<dim>1</dim>
					<dim>128</dim>
					<dim>32</dim>
					<dim>56</dim>
				</port>
				<port id="1" precision="FP32">
					<dim>1</dim>
					<dim>128</dim>
					<dim>1</dim>
					<dim>1</dim>
				</port>
			</input>
			<output>
				<port id="2" precision="FP32" names="input.292">
					<dim>1</dim>
					<dim>128</dim>
					<dim>32</dim>
					<dim>56</dim>
				</port>
			</output>
		</layer>
		<layer id="217" name="onnx::Conv_519" type="ReLU" version="opset1">
			<rt_info>
				<attribute name="fused_names" version="0" value="onnx::Conv_519"/>
			</rt_info>
			<input>
				<port id="0" precision="FP32">
					<dim>1</dim>
					<dim>128</dim>
					<dim>32</dim>
					<dim>56</dim>
				</port>
			</input>
			<output>
				<port id="1" precision="FP32" names="onnx::Conv_519">
					<dim>1</dim>
					<dim>128</dim>
					<dim>32</dim>
					<dim>56</dim>
				</port>
			</output>
		</layer>
		<layer id="218" name="onnx::Conv_712" type="Const" version="opset1">
			<data element_type="f32" shape="128, 128, 3, 3" offset="12491504" size="589824"/>
			<rt_info>
				<attribute name="fused_names" version="0" value="onnx::Conv_712"/>
			</rt_info>
			<output>
				<port id="0" precision="FP32" names="onnx::Conv_712">
					<dim>128</dim>
					<dim>128</dim>
					<dim>3</dim>
					<dim>3</dim>
				</port>
			</output>
		</layer>
		<layer id="219" name="Convolution_3112" type="Convolution" version="opset1">
			<data strides="1, 1" dilations="1, 1" pads_begin="1, 1" pads_end="1, 1" auto_pad="explicit"/>
			<rt_info>
				<attribute name="fused_names" version="0" value="Convolution_3112"/>
			</rt_info>
			<input>
				<port id="0" precision="FP32">
					<dim>1</dim>
					<dim>128</dim>
					<dim>32</dim>
					<dim>56</dim>
				</port>
				<port id="1" precision="FP32">
					<dim>128</dim>
					<dim>128</dim>
					<dim>3</dim>
					<dim>3</dim>
				</port>
			</input>
			<output>
				<port id="2" precision="FP32">
					<dim>1</dim>
					<dim>128</dim>
					<dim>32</dim>
					<dim>56</dim>
				</port>
			</output>
		</layer>
		<layer id="220" name="Reshape_3132" type="Const" version="opset1">
			<data element_type="f32" shape="1, 128, 1, 1" offset="13081328" size="512"/>
			<output>
				<port id="0" precision="FP32">
					<dim>1</dim>
					<dim>128</dim>
					<dim>1</dim>
					<dim>1</dim>
				</port>
			</output>
		</layer>
		<layer id="221" name="input.300" type="Add" version="opset1">
			<data auto_broadcast="numpy"/>
			<rt_info>
				<attribute name="fused_names" version="0" value="Concat_3131, Reshape_3132, input.300"/>
			</rt_info>
			<input>
				<port id="0" precision="FP32">
					<dim>1</dim>
					<dim>128</dim>
					<dim>32</dim>
					<dim>56</dim>
				</port>
				<port id="1" precision="FP32">
					<dim>1</dim>
					<dim>128</dim>
					<dim>1</dim>
					<dim>1</dim>
				</port>
			</input>
			<output>
				<port id="2" precision="FP32" names="input.300">
					<dim>1</dim>
					<dim>128</dim>
					<dim>32</dim>
					<dim>56</dim>
				</port>
			</output>
		</layer>
		<layer id="222" name="onnx::Conv_522" type="ReLU" version="opset1">
			<rt_info>
				<attribute name="fused_names" version="0" value="onnx::Conv_522"/>
			</rt_info>
			<input>
				<port id="0" precision="FP32">
					<dim>1</dim>
					<dim>128</dim>
					<dim>32</dim>
					<dim>56</dim>
				</port>
			</input>
			<output>
				<port id="1" precision="FP32" names="onnx::Conv_522">
					<dim>1</dim>
					<dim>128</dim>
					<dim>32</dim>
					<dim>56</dim>
				</port>
			</output>
		</layer>
		<layer id="223" name="onnx::Conv_715" type="Const" version="opset1">
			<data element_type="f32" shape="128, 128, 3, 3" offset="13081840" size="589824"/>
			<rt_info>
				<attribute name="fused_names" version="0" value="onnx::Conv_715"/>
			</rt_info>
			<output>
				<port id="0" precision="FP32" names="onnx::Conv_715">
					<dim>128</dim>
					<dim>128</dim>
					<dim>3</dim>
					<dim>3</dim>
				</port>
			</output>
		</layer>
		<layer id="224" name="Convolution_3161" type="Convolution" version="opset1">
			<data strides="1, 1" dilations="2, 2" pads_begin="2, 2" pads_end="2, 2" auto_pad="explicit"/>
			<rt_info>
				<attribute name="fused_names" version="0" value="Convolution_3161"/>
			</rt_info>
			<input>
				<port id="0" precision="FP32">
					<dim>1</dim>
					<dim>128</dim>
					<dim>32</dim>
					<dim>56</dim>
				</port>
				<port id="1" precision="FP32">
					<dim>128</dim>
					<dim>128</dim>
					<dim>3</dim>
					<dim>3</dim>
				</port>
			</input>
			<output>
				<port id="2" precision="FP32">
					<dim>1</dim>
					<dim>128</dim>
					<dim>32</dim>
					<dim>56</dim>
				</port>
			</output>
		</layer>
		<layer id="225" name="Reshape_3181" type="Const" version="opset1">
			<data element_type="f32" shape="1, 128, 1, 1" offset="13671664" size="512"/>
			<output>
				<port id="0" precision="FP32">
					<dim>1</dim>
					<dim>128</dim>
					<dim>1</dim>
					<dim>1</dim>
				</port>
			</output>
		</layer>
		<layer id="226" name="input.308" type="Add" version="opset1">
			<data auto_broadcast="numpy"/>
			<rt_info>
				<attribute name="fused_names" version="0" value="Concat_3180, Reshape_3181, input.308"/>
			</rt_info>
			<input>
				<port id="0" precision="FP32">
					<dim>1</dim>
					<dim>128</dim>
					<dim>32</dim>
					<dim>56</dim>
				</port>
				<port id="1" precision="FP32">
					<dim>1</dim>
					<dim>128</dim>
					<dim>1</dim>
					<dim>1</dim>
				</port>
			</input>
			<output>
				<port id="2" precision="FP32" names="input.308">
					<dim>1</dim>
					<dim>128</dim>
					<dim>32</dim>
					<dim>56</dim>
				</port>
			</output>
		</layer>
		<layer id="227" name="onnx::Add_525" type="ReLU" version="opset1">
			<rt_info>
				<attribute name="fused_names" version="0" value="onnx::Add_525"/>
			</rt_info>
			<input>
				<port id="0" precision="FP32">
					<dim>1</dim>
					<dim>128</dim>
					<dim>32</dim>
					<dim>56</dim>
				</port>
			</input>
			<output>
				<port id="1" precision="FP32" names="onnx::Add_525">
					<dim>1</dim>
					<dim>128</dim>
					<dim>32</dim>
					<dim>56</dim>
				</port>
			</output>
		</layer>
		<layer id="228" name="input.312" type="Add" version="opset1">
			<data auto_broadcast="numpy"/>
			<rt_info>
				<attribute name="fused_names" version="0" value="input.312"/>
			</rt_info>
			<input>
				<port id="0" precision="FP32">
					<dim>1</dim>
					<dim>128</dim>
					<dim>32</dim>
					<dim>56</dim>
				</port>
				<port id="1" precision="FP32">
					<dim>1</dim>
					<dim>128</dim>
					<dim>32</dim>
					<dim>56</dim>
				</port>
			</input>
			<output>
				<port id="2" precision="FP32" names="input.312">
					<dim>1</dim>
					<dim>128</dim>
					<dim>32</dim>
					<dim>56</dim>
				</port>
			</output>
		</layer>
		<layer id="229" name="refinement_stages.0.trunk.3.initial.0.weight" type="Const" version="opset1">
			<data element_type="f32" shape="128, 128, 1, 1" offset="13672176" size="65536"/>
			<rt_info>
				<attribute name="fused_names" version="0" value="refinement_stages.0.trunk.3.initial.0.weight"/>
			</rt_info>
			<output>
				<port id="0" precision="FP32" names="refinement_stages.0.trunk.3.initial.0.weight">
					<dim>128</dim>
					<dim>128</dim>
					<dim>1</dim>
					<dim>1</dim>
				</port>
			</output>
		</layer>
		<layer id="230" name="Convolution_3211" type="Convolution" version="opset1">
			<data strides="1, 1" dilations="1, 1" pads_begin="0, 0" pads_end="0, 0" auto_pad="explicit"/>
			<rt_info>
				<attribute name="fused_names" version="0" value="Convolution_3211"/>
			</rt_info>
			<input>
				<port id="0" precision="FP32">
					<dim>1</dim>
					<dim>128</dim>
					<dim>32</dim>
					<dim>56</dim>
				</port>
				<port id="1" precision="FP32">
					<dim>128</dim>
					<dim>128</dim>
					<dim>1</dim>
					<dim>1</dim>
				</port>
			</input>
			<output>
				<port id="2" precision="FP32">
					<dim>1</dim>
					<dim>128</dim>
					<dim>32</dim>
					<dim>56</dim>
				</port>
			</output>
		</layer>
		<layer id="231" name="Reshape_3231" type="Const" version="opset1">
			<data element_type="f32" shape="1, 128, 1, 1" offset="13737712" size="512"/>
			<output>
				<port id="0" precision="FP32">
					<dim>1</dim>
					<dim>128</dim>
					<dim>1</dim>
					<dim>1</dim>
				</port>
			</output>
		</layer>
		<layer id="232" name="input.316" type="Add" version="opset1">
			<data auto_broadcast="numpy"/>
			<rt_info>
				<attribute name="fused_names" version="0" value="Concat_3230, Reshape_3231, input.316"/>
			</rt_info>
			<input>
				<port id="0" precision="FP32">
					<dim>1</dim>
					<dim>128</dim>
					<dim>32</dim>
					<dim>56</dim>
				</port>
				<port id="1" precision="FP32">
					<dim>1</dim>
					<dim>128</dim>
					<dim>1</dim>
					<dim>1</dim>
				</port>
			</input>
			<output>
				<port id="2" precision="FP32" names="input.316">
					<dim>1</dim>
					<dim>128</dim>
					<dim>32</dim>
					<dim>56</dim>
				</port>
			</output>
		</layer>
		<layer id="233" name="onnx::Conv_528" type="ReLU" version="opset1">
			<rt_info>
				<attribute name="fused_names" version="0" value="onnx::Conv_528"/>
			</rt_info>
			<input>
				<port id="0" precision="FP32">
					<dim>1</dim>
					<dim>128</dim>
					<dim>32</dim>
					<dim>56</dim>
				</port>
			</input>
			<output>
				<port id="1" precision="FP32" names="onnx::Conv_528">
					<dim>1</dim>
					<dim>128</dim>
					<dim>32</dim>
					<dim>56</dim>
				</port>
			</output>
		</layer>
		<layer id="234" name="onnx::Conv_718" type="Const" version="opset1">
			<data element_type="f32" shape="128, 128, 3, 3" offset="13738224" size="589824"/>
			<rt_info>
				<attribute name="fused_names" version="0" value="onnx::Conv_718"/>
			</rt_info>
			<output>
				<port id="0" precision="FP32" names="onnx::Conv_718">
					<dim>128</dim>
					<dim>128</dim>
					<dim>3</dim>
					<dim>3</dim>
				</port>
			</output>
		</layer>
		<layer id="235" name="Convolution_3260" type="Convolution" version="opset1">
			<data strides="1, 1" dilations="1, 1" pads_begin="1, 1" pads_end="1, 1" auto_pad="explicit"/>
			<rt_info>
				<attribute name="fused_names" version="0" value="Convolution_3260"/>
			</rt_info>
			<input>
				<port id="0" precision="FP32">
					<dim>1</dim>
					<dim>128</dim>
					<dim>32</dim>
					<dim>56</dim>
				</port>
				<port id="1" precision="FP32">
					<dim>128</dim>
					<dim>128</dim>
					<dim>3</dim>
					<dim>3</dim>
				</port>
			</input>
			<output>
				<port id="2" precision="FP32">
					<dim>1</dim>
					<dim>128</dim>
					<dim>32</dim>
					<dim>56</dim>
				</port>
			</output>
		</layer>
		<layer id="236" name="Reshape_3280" type="Const" version="opset1">
			<data element_type="f32" shape="1, 128, 1, 1" offset="14328048" size="512"/>
			<output>
				<port id="0" precision="FP32">
					<dim>1</dim>
					<dim>128</dim>
					<dim>1</dim>
					<dim>1</dim>
				</port>
			</output>
		</layer>
		<layer id="237" name="input.324" type="Add" version="opset1">
			<data auto_broadcast="numpy"/>
			<rt_info>
				<attribute name="fused_names" version="0" value="Concat_3279, Reshape_3280, input.324"/>
			</rt_info>
			<input>
				<port id="0" precision="FP32">
					<dim>1</dim>
					<dim>128</dim>
					<dim>32</dim>
					<dim>56</dim>
				</port>
				<port id="1" precision="FP32">
					<dim>1</dim>
					<dim>128</dim>
					<dim>1</dim>
					<dim>1</dim>
				</port>
			</input>
			<output>
				<port id="2" precision="FP32" names="input.324">
					<dim>1</dim>
					<dim>128</dim>
					<dim>32</dim>
					<dim>56</dim>
				</port>
			</output>
		</layer>
		<layer id="238" name="onnx::Conv_531" type="ReLU" version="opset1">
			<rt_info>
				<attribute name="fused_names" version="0" value="onnx::Conv_531"/>
			</rt_info>
			<input>
				<port id="0" precision="FP32">
					<dim>1</dim>
					<dim>128</dim>
					<dim>32</dim>
					<dim>56</dim>
				</port>
			</input>
			<output>
				<port id="1" precision="FP32" names="onnx::Conv_531">
					<dim>1</dim>
					<dim>128</dim>
					<dim>32</dim>
					<dim>56</dim>
				</port>
			</output>
		</layer>
		<layer id="239" name="onnx::Conv_721" type="Const" version="opset1">
			<data element_type="f32" shape="128, 128, 3, 3" offset="14328560" size="589824"/>
			<rt_info>
				<attribute name="fused_names" version="0" value="onnx::Conv_721"/>
			</rt_info>
			<output>
				<port id="0" precision="FP32" names="onnx::Conv_721">
					<dim>128</dim>
					<dim>128</dim>
					<dim>3</dim>
					<dim>3</dim>
				</port>
			</output>
		</layer>
		<layer id="240" name="Convolution_3309" type="Convolution" version="opset1">
			<data strides="1, 1" dilations="2, 2" pads_begin="2, 2" pads_end="2, 2" auto_pad="explicit"/>
			<rt_info>
				<attribute name="fused_names" version="0" value="Convolution_3309"/>
			</rt_info>
			<input>
				<port id="0" precision="FP32">
					<dim>1</dim>
					<dim>128</dim>
					<dim>32</dim>
					<dim>56</dim>
				</port>
				<port id="1" precision="FP32">
					<dim>128</dim>
					<dim>128</dim>
					<dim>3</dim>
					<dim>3</dim>
				</port>
			</input>
			<output>
				<port id="2" precision="FP32">
					<dim>1</dim>
					<dim>128</dim>
					<dim>32</dim>
					<dim>56</dim>
				</port>
			</output>
		</layer>
		<layer id="241" name="Reshape_3329" type="Const" version="opset1">
			<data element_type="f32" shape="1, 128, 1, 1" offset="14918384" size="512"/>
			<output>
				<port id="0" precision="FP32">
					<dim>1</dim>
					<dim>128</dim>
					<dim>1</dim>
					<dim>1</dim>
				</port>
			</output>
		</layer>
		<layer id="242" name="input.332" type="Add" version="opset1">
			<data auto_broadcast="numpy"/>
			<rt_info>
				<attribute name="fused_names" version="0" value="Concat_3328, Reshape_3329, input.332"/>
			</rt_info>
			<input>
				<port id="0" precision="FP32">
					<dim>1</dim>
					<dim>128</dim>
					<dim>32</dim>
					<dim>56</dim>
				</port>
				<port id="1" precision="FP32">
					<dim>1</dim>
					<dim>128</dim>
					<dim>1</dim>
					<dim>1</dim>
				</port>
			</input>
			<output>
				<port id="2" precision="FP32" names="input.332">
					<dim>1</dim>
					<dim>128</dim>
					<dim>32</dim>
					<dim>56</dim>
				</port>
			</output>
		</layer>
		<layer id="243" name="onnx::Add_534" type="ReLU" version="opset1">
			<rt_info>
				<attribute name="fused_names" version="0" value="onnx::Add_534"/>
			</rt_info>
			<input>
				<port id="0" precision="FP32">
					<dim>1</dim>
					<dim>128</dim>
					<dim>32</dim>
					<dim>56</dim>
				</port>
			</input>
			<output>
				<port id="1" precision="FP32" names="onnx::Add_534">
					<dim>1</dim>
					<dim>128</dim>
					<dim>32</dim>
					<dim>56</dim>
				</port>
			</output>
		</layer>
		<layer id="244" name="input.336" type="Add" version="opset1">
			<data auto_broadcast="numpy"/>
			<rt_info>
				<attribute name="fused_names" version="0" value="input.336"/>
			</rt_info>
			<input>
				<port id="0" precision="FP32">
					<dim>1</dim>
					<dim>128</dim>
					<dim>32</dim>
					<dim>56</dim>
				</port>
				<port id="1" precision="FP32">
					<dim>1</dim>
					<dim>128</dim>
					<dim>32</dim>
					<dim>56</dim>
				</port>
			</input>
			<output>
				<port id="2" precision="FP32" names="input.336">
					<dim>1</dim>
					<dim>128</dim>
					<dim>32</dim>
					<dim>56</dim>
				</port>
			</output>
		</layer>
		<layer id="245" name="refinement_stages.0.trunk.4.initial.0.weight" type="Const" version="opset1">
			<data element_type="f32" shape="128, 128, 1, 1" offset="14918896" size="65536"/>
			<rt_info>
				<attribute name="fused_names" version="0" value="refinement_stages.0.trunk.4.initial.0.weight"/>
			</rt_info>
			<output>
				<port id="0" precision="FP32" names="refinement_stages.0.trunk.4.initial.0.weight">
					<dim>128</dim>
					<dim>128</dim>
					<dim>1</dim>
					<dim>1</dim>
				</port>
			</output>
		</layer>
		<layer id="246" name="Convolution_3359" type="Convolution" version="opset1">
			<data strides="1, 1" dilations="1, 1" pads_begin="0, 0" pads_end="0, 0" auto_pad="explicit"/>
			<rt_info>
				<attribute name="fused_names" version="0" value="Convolution_3359"/>
			</rt_info>
			<input>
				<port id="0" precision="FP32">
					<dim>1</dim>
					<dim>128</dim>
					<dim>32</dim>
					<dim>56</dim>
				</port>
				<port id="1" precision="FP32">
					<dim>128</dim>
					<dim>128</dim>
					<dim>1</dim>
					<dim>1</dim>
				</port>
			</input>
			<output>
				<port id="2" precision="FP32">
					<dim>1</dim>
					<dim>128</dim>
					<dim>32</dim>
					<dim>56</dim>
				</port>
			</output>
		</layer>
		<layer id="247" name="Reshape_3379" type="Const" version="opset1">
			<data element_type="f32" shape="1, 128, 1, 1" offset="14984432" size="512"/>
			<output>
				<port id="0" precision="FP32">
					<dim>1</dim>
					<dim>128</dim>
					<dim>1</dim>
					<dim>1</dim>
				</port>
			</output>
		</layer>
		<layer id="248" name="input.340" type="Add" version="opset1">
			<data auto_broadcast="numpy"/>
			<rt_info>
				<attribute name="fused_names" version="0" value="Concat_3378, Reshape_3379, input.340"/>
			</rt_info>
			<input>
				<port id="0" precision="FP32">
					<dim>1</dim>
					<dim>128</dim>
					<dim>32</dim>
					<dim>56</dim>
				</port>
				<port id="1" precision="FP32">
					<dim>1</dim>
					<dim>128</dim>
					<dim>1</dim>
					<dim>1</dim>
				</port>
			</input>
			<output>
				<port id="2" precision="FP32" names="input.340">
					<dim>1</dim>
					<dim>128</dim>
					<dim>32</dim>
					<dim>56</dim>
				</port>
			</output>
		</layer>
		<layer id="249" name="onnx::Conv_537" type="ReLU" version="opset1">
			<rt_info>
				<attribute name="fused_names" version="0" value="onnx::Conv_537"/>
			</rt_info>
			<input>
				<port id="0" precision="FP32">
					<dim>1</dim>
					<dim>128</dim>
					<dim>32</dim>
					<dim>56</dim>
				</port>
			</input>
			<output>
				<port id="1" precision="FP32" names="onnx::Conv_537">
					<dim>1</dim>
					<dim>128</dim>
					<dim>32</dim>
					<dim>56</dim>
				</port>
			</output>
		</layer>
		<layer id="250" name="onnx::Conv_724" type="Const" version="opset1">
			<data element_type="f32" shape="128, 128, 3, 3" offset="14984944" size="589824"/>
			<rt_info>
				<attribute name="fused_names" version="0" value="onnx::Conv_724"/>
			</rt_info>
			<output>
				<port id="0" precision="FP32" names="onnx::Conv_724">
					<dim>128</dim>
					<dim>128</dim>
					<dim>3</dim>
					<dim>3</dim>
				</port>
			</output>
		</layer>
		<layer id="251" name="Convolution_3408" type="Convolution" version="opset1">
			<data strides="1, 1" dilations="1, 1" pads_begin="1, 1" pads_end="1, 1" auto_pad="explicit"/>
			<rt_info>
				<attribute name="fused_names" version="0" value="Convolution_3408"/>
			</rt_info>
			<input>
				<port id="0" precision="FP32">
					<dim>1</dim>
					<dim>128</dim>
					<dim>32</dim>
					<dim>56</dim>
				</port>
				<port id="1" precision="FP32">
					<dim>128</dim>
					<dim>128</dim>
					<dim>3</dim>
					<dim>3</dim>
				</port>
			</input>
			<output>
				<port id="2" precision="FP32">
					<dim>1</dim>
					<dim>128</dim>
					<dim>32</dim>
					<dim>56</dim>
				</port>
			</output>
		</layer>
		<layer id="252" name="Reshape_3428" type="Const" version="opset1">
			<data element_type="f32" shape="1, 128, 1, 1" offset="15574768" size="512"/>
			<output>
				<port id="0" precision="FP32">
					<dim>1</dim>
					<dim>128</dim>
					<dim>1</dim>
					<dim>1</dim>
				</port>
			</output>
		</layer>
		<layer id="253" name="input.348" type="Add" version="opset1">
			<data auto_broadcast="numpy"/>
			<rt_info>
				<attribute name="fused_names" version="0" value="Concat_3427, Reshape_3428, input.348"/>
			</rt_info>
			<input>
				<port id="0" precision="FP32">
					<dim>1</dim>
					<dim>128</dim>
					<dim>32</dim>
					<dim>56</dim>
				</port>
				<port id="1" precision="FP32">
					<dim>1</dim>
					<dim>128</dim>
					<dim>1</dim>
					<dim>1</dim>
				</port>
			</input>
			<output>
				<port id="2" precision="FP32" names="input.348">
					<dim>1</dim>
					<dim>128</dim>
					<dim>32</dim>
					<dim>56</dim>
				</port>
			</output>
		</layer>
		<layer id="254" name="onnx::Conv_540" type="ReLU" version="opset1">
			<rt_info>
				<attribute name="fused_names" version="0" value="onnx::Conv_540"/>
			</rt_info>
			<input>
				<port id="0" precision="FP32">
					<dim>1</dim>
					<dim>128</dim>
					<dim>32</dim>
					<dim>56</dim>
				</port>
			</input>
			<output>
				<port id="1" precision="FP32" names="onnx::Conv_540">
					<dim>1</dim>
					<dim>128</dim>
					<dim>32</dim>
					<dim>56</dim>
				</port>
			</output>
		</layer>
		<layer id="255" name="onnx::Conv_727" type="Const" version="opset1">
			<data element_type="f32" shape="128, 128, 3, 3" offset="15575280" size="589824"/>
			<rt_info>
				<attribute name="fused_names" version="0" value="onnx::Conv_727"/>
			</rt_info>
			<output>
				<port id="0" precision="FP32" names="onnx::Conv_727">
					<dim>128</dim>
					<dim>128</dim>
					<dim>3</dim>
					<dim>3</dim>
				</port>
			</output>
		</layer>
		<layer id="256" name="Convolution_3457" type="Convolution" version="opset1">
			<data strides="1, 1" dilations="2, 2" pads_begin="2, 2" pads_end="2, 2" auto_pad="explicit"/>
			<rt_info>
				<attribute name="fused_names" version="0" value="Convolution_3457"/>
			</rt_info>
			<input>
				<port id="0" precision="FP32">
					<dim>1</dim>
					<dim>128</dim>
					<dim>32</dim>
					<dim>56</dim>
				</port>
				<port id="1" precision="FP32">
					<dim>128</dim>
					<dim>128</dim>
					<dim>3</dim>
					<dim>3</dim>
				</port>
			</input>
			<output>
				<port id="2" precision="FP32">
					<dim>1</dim>
					<dim>128</dim>
					<dim>32</dim>
					<dim>56</dim>
				</port>
			</output>
		</layer>
		<layer id="257" name="Reshape_3477" type="Const" version="opset1">
			<data element_type="f32" shape="1, 128, 1, 1" offset="16165104" size="512"/>
			<output>
				<port id="0" precision="FP32">
					<dim>1</dim>
					<dim>128</dim>
					<dim>1</dim>
					<dim>1</dim>
				</port>
			</output>
		</layer>
		<layer id="258" name="input.356" type="Add" version="opset1">
			<data auto_broadcast="numpy"/>
			<rt_info>
				<attribute name="fused_names" version="0" value="Concat_3476, Reshape_3477, input.356"/>
			</rt_info>
			<input>
				<port id="0" precision="FP32">
					<dim>1</dim>
					<dim>128</dim>
					<dim>32</dim>
					<dim>56</dim>
				</port>
				<port id="1" precision="FP32">
					<dim>1</dim>
					<dim>128</dim>
					<dim>1</dim>
					<dim>1</dim>
				</port>
			</input>
			<output>
				<port id="2" precision="FP32" names="input.356">
					<dim>1</dim>
					<dim>128</dim>
					<dim>32</dim>
					<dim>56</dim>
				</port>
			</output>
		</layer>
		<layer id="259" name="onnx::Add_543" type="ReLU" version="opset1">
			<rt_info>
				<attribute name="fused_names" version="0" value="onnx::Add_543"/>
			</rt_info>
			<input>
				<port id="0" precision="FP32">
					<dim>1</dim>
					<dim>128</dim>
					<dim>32</dim>
					<dim>56</dim>
				</port>
			</input>
			<output>
				<port id="1" precision="FP32" names="onnx::Add_543">
					<dim>1</dim>
					<dim>128</dim>
					<dim>32</dim>
					<dim>56</dim>
				</port>
			</output>
		</layer>
		<layer id="260" name="input.360" type="Add" version="opset1">
			<data auto_broadcast="numpy"/>
			<rt_info>
				<attribute name="fused_names" version="0" value="input.360"/>
			</rt_info>
			<input>
				<port id="0" precision="FP32">
					<dim>1</dim>
					<dim>128</dim>
					<dim>32</dim>
					<dim>56</dim>
				</port>
				<port id="1" precision="FP32">
					<dim>1</dim>
					<dim>128</dim>
					<dim>32</dim>
					<dim>56</dim>
				</port>
			</input>
			<output>
				<port id="2" precision="FP32" names="input.360">
					<dim>1</dim>
					<dim>128</dim>
					<dim>32</dim>
					<dim>56</dim>
				</port>
			</output>
		</layer>
		<layer id="261" name="refinement_stages.0.pafs.0.0.weight" type="Const" version="opset1">
			<data element_type="f32" shape="128, 128, 1, 1" offset="16165616" size="65536"/>
			<rt_info>
				<attribute name="fused_names" version="0" value="refinement_stages.0.pafs.0.0.weight"/>
			</rt_info>
			<output>
				<port id="0" precision="FP32" names="refinement_stages.0.pafs.0.0.weight">
					<dim>128</dim>
					<dim>128</dim>
					<dim>1</dim>
					<dim>1</dim>
				</port>
			</output>
		</layer>
		<layer id="262" name="Convolution_3604" type="Convolution" version="opset1">
			<data strides="1, 1" dilations="1, 1" pads_begin="0, 0" pads_end="0, 0" auto_pad="explicit"/>
			<rt_info>
				<attribute name="fused_names" version="0" value="Convolution_3604"/>
			</rt_info>
			<input>
				<port id="0" precision="FP32">
					<dim>1</dim>
					<dim>128</dim>
					<dim>32</dim>
					<dim>56</dim>
				</port>
				<port id="1" precision="FP32">
					<dim>128</dim>
					<dim>128</dim>
					<dim>1</dim>
					<dim>1</dim>
				</port>
			</input>
			<output>
				<port id="2" precision="FP32">
					<dim>1</dim>
					<dim>128</dim>
					<dim>32</dim>
					<dim>56</dim>
				</port>
			</output>
		</layer>
		<layer id="263" name="Reshape_3624" type="Const" version="opset1">
			<data element_type="f32" shape="1, 128, 1, 1" offset="16231152" size="512"/>
			<output>
				<port id="0" precision="FP32">
					<dim>1</dim>
					<dim>128</dim>
					<dim>1</dim>
					<dim>1</dim>
				</port>
			</output>
		</layer>
		<layer id="264" name="input.372" type="Add" version="opset1">
			<data auto_broadcast="numpy"/>
			<rt_info>
				<attribute name="fused_names" version="0" value="Concat_3623, Reshape_3624, input.372"/>
			</rt_info>
			<input>
				<port id="0" precision="FP32">
					<dim>1</dim>
					<dim>128</dim>
					<dim>32</dim>
					<dim>56</dim>
				</port>
				<port id="1" precision="FP32">
					<dim>1</dim>
					<dim>128</dim>
					<dim>1</dim>
					<dim>1</dim>
				</port>
			</input>
			<output>
				<port id="2" precision="FP32" names="input.372">
					<dim>1</dim>
					<dim>128</dim>
					<dim>32</dim>
					<dim>56</dim>
				</port>
			</output>
		</layer>
		<layer id="265" name="onnx::Conv_549" type="ReLU" version="opset1">
			<rt_info>
				<attribute name="fused_names" version="0" value="onnx::Conv_549"/>
			</rt_info>
			<input>
				<port id="0" precision="FP32">
					<dim>1</dim>
					<dim>128</dim>
					<dim>32</dim>
					<dim>56</dim>
				</port>
			</input>
			<output>
				<port id="1" precision="FP32" names="onnx::Conv_549">
					<dim>1</dim>
					<dim>128</dim>
					<dim>32</dim>
					<dim>56</dim>
				</port>
			</output>
		</layer>
		<layer id="266" name="refinement_stages.0.pafs.1.0.weight" type="Const" version="opset1">
			<data element_type="f32" shape="38, 128, 1, 1" offset="16231664" size="19456"/>
			<rt_info>
				<attribute name="fused_names" version="0" value="refinement_stages.0.pafs.1.0.weight"/>
			</rt_info>
			<output>
				<port id="0" precision="FP32" names="refinement_stages.0.pafs.1.0.weight">
					<dim>38</dim>
					<dim>128</dim>
					<dim>1</dim>
					<dim>1</dim>
				</port>
			</output>
		</layer>
		<layer id="267" name="Convolution_3653" type="Convolution" version="opset1">
			<data strides="1, 1" dilations="1, 1" pads_begin="0, 0" pads_end="0, 0" auto_pad="explicit"/>
			<rt_info>
				<attribute name="fused_names" version="0" value="Convolution_3653"/>
			</rt_info>
			<input>
				<port id="0" precision="FP32">
					<dim>1</dim>
					<dim>128</dim>
					<dim>32</dim>
					<dim>56</dim>
				</port>
				<port id="1" precision="FP32">
					<dim>38</dim>
					<dim>128</dim>
					<dim>1</dim>
					<dim>1</dim>
				</port>
			</input>
			<output>
				<port id="2" precision="FP32">
					<dim>1</dim>
					<dim>38</dim>
					<dim>32</dim>
					<dim>56</dim>
				</port>
			</output>
		</layer>
		<layer id="268" name="Reshape_3673" type="Const" version="opset1">
			<data element_type="f32" shape="1, 38, 1, 1" offset="16251120" size="152"/>
			<output>
				<port id="0" precision="FP32">
					<dim>1</dim>
					<dim>38</dim>
					<dim>1</dim>
					<dim>1</dim>
				</port>
			</output>
		</layer>
		<layer id="269" name="input.376" type="Add" version="opset1">
			<data auto_broadcast="numpy"/>
			<rt_info>
				<attribute name="fused_names" version="0" value="Concat_3672, Reshape_3673, input.376"/>
			</rt_info>
			<input>
				<port id="0" precision="FP32">
					<dim>1</dim>
					<dim>38</dim>
					<dim>32</dim>
					<dim>56</dim>
				</port>
				<port id="1" precision="FP32">
					<dim>1</dim>
					<dim>38</dim>
					<dim>1</dim>
					<dim>1</dim>
				</port>
			</input>
			<output>
				<port id="2" precision="FP32" names="input.376">
					<dim>1</dim>
					<dim>38</dim>
					<dim>32</dim>
					<dim>56</dim>
				</port>
			</output>
		</layer>
		<layer id="270" name="fake_conv_pafs.weight" type="Const" version="opset1">
			<data element_type="f32" shape="38, 38, 1, 1" offset="16251272" size="5776"/>
			<rt_info>
				<attribute name="fused_names" version="0" value="fake_conv_pafs.weight"/>
			</rt_info>
			<output>
				<port id="0" precision="FP32" names="fake_conv_pafs.weight">
					<dim>38</dim>
					<dim>38</dim>
					<dim>1</dim>
					<dim>1</dim>
				</port>
			</output>
		</layer>
		<layer id="271" name="onnx::Add_553" type="Convolution" version="opset1">
			<data strides="1, 1" dilations="1, 1" pads_begin="0, 0" pads_end="0, 0" auto_pad="explicit"/>
			<rt_info>
				<attribute name="fused_names" version="0" value="onnx::Add_553"/>
			</rt_info>
			<input>
				<port id="0" precision="FP32">
					<dim>1</dim>
					<dim>38</dim>
					<dim>32</dim>
					<dim>56</dim>
				</port>
				<port id="1" precision="FP32">
					<dim>38</dim>
					<dim>38</dim>
					<dim>1</dim>
					<dim>1</dim>
				</port>
			</input>
			<output>
				<port id="2" precision="FP32" names="onnx::Add_553">
					<dim>1</dim>
					<dim>38</dim>
					<dim>32</dim>
					<dim>56</dim>
				</port>
			</output>
		</layer>
		<layer id="272" name="pafs" type="Add" version="opset1">
			<data auto_broadcast="numpy"/>
			<rt_info>
				<attribute name="fused_names" version="0" value="pafs"/>
			</rt_info>
			<input>
				<port id="0" precision="FP32">
					<dim>1</dim>
					<dim>38</dim>
					<dim>32</dim>
					<dim>56</dim>
				</port>
				<port id="1" precision="FP32">
					<dim>1</dim>
					<dim>38</dim>
					<dim>32</dim>
					<dim>56</dim>
				</port>
			</input>
			<output>
				<port id="2" precision="FP32" names="pafs">
					<dim>1</dim>
					<dim>38</dim>
					<dim>32</dim>
					<dim>56</dim>
				</port>
			</output>
		</layer>
		<layer id="274" name="refinement_stages.0.heatmaps.0.0.weight" type="Const" version="opset1">
			<data element_type="f32" shape="128, 128, 1, 1" offset="16257048" size="65536"/>
			<rt_info>
				<attribute name="fused_names" version="0" value="refinement_stages.0.heatmaps.0.0.weight"/>
			</rt_info>
			<output>
				<port id="0" precision="FP32" names="refinement_stages.0.heatmaps.0.0.weight">
					<dim>128</dim>
					<dim>128</dim>
					<dim>1</dim>
					<dim>1</dim>
				</port>
			</output>
		</layer>
		<layer id="275" name="Convolution_3507" type="Convolution" version="opset1">
			<data strides="1, 1" dilations="1, 1" pads_begin="0, 0" pads_end="0, 0" auto_pad="explicit"/>
			<rt_info>
				<attribute name="fused_names" version="0" value="Convolution_3507"/>
			</rt_info>
			<input>
				<port id="0" precision="FP32">
					<dim>1</dim>
					<dim>128</dim>
					<dim>32</dim>
					<dim>56</dim>
				</port>
				<port id="1" precision="FP32">
					<dim>128</dim>
					<dim>128</dim>
					<dim>1</dim>
					<dim>1</dim>
				</port>
			</input>
			<output>
				<port id="2" precision="FP32">
					<dim>1</dim>
					<dim>128</dim>
					<dim>32</dim>
					<dim>56</dim>
				</port>
			</output>
		</layer>
		<layer id="276" name="Reshape_3527" type="Const" version="opset1">
			<data element_type="f32" shape="1, 128, 1, 1" offset="16322584" size="512"/>
			<output>
				<port id="0" precision="FP32">
					<dim>1</dim>
					<dim>128</dim>
					<dim>1</dim>
					<dim>1</dim>
				</port>
			</output>
		</layer>
		<layer id="277" name="input.364" type="Add" version="opset1">
			<data auto_broadcast="numpy"/>
			<rt_info>
				<attribute name="fused_names" version="0" value="Concat_3526, Reshape_3527, input.364"/>
			</rt_info>
			<input>
				<port id="0" precision="FP32">
					<dim>1</dim>
					<dim>128</dim>
					<dim>32</dim>
					<dim>56</dim>
				</port>
				<port id="1" precision="FP32">
					<dim>1</dim>
					<dim>128</dim>
					<dim>1</dim>
					<dim>1</dim>
				</port>
			</input>
			<output>
				<port id="2" precision="FP32" names="input.364">
					<dim>1</dim>
					<dim>128</dim>
					<dim>32</dim>
					<dim>56</dim>
				</port>
			</output>
		</layer>
		<layer id="278" name="onnx::Conv_546" type="ReLU" version="opset1">
			<rt_info>
				<attribute name="fused_names" version="0" value="onnx::Conv_546"/>
			</rt_info>
			<input>
				<port id="0" precision="FP32">
					<dim>1</dim>
					<dim>128</dim>
					<dim>32</dim>
					<dim>56</dim>
				</port>
			</input>
			<output>
				<port id="1" precision="FP32" names="onnx::Conv_546">
					<dim>1</dim>
					<dim>128</dim>
					<dim>32</dim>
					<dim>56</dim>
				</port>
			</output>
		</layer>
		<layer id="279" name="refinement_stages.0.heatmaps.1.0.weight" type="Const" version="opset1">
			<data element_type="f32" shape="19, 128, 1, 1" offset="16323096" size="9728"/>
			<rt_info>
				<attribute name="fused_names" version="0" value="refinement_stages.0.heatmaps.1.0.weight"/>
			</rt_info>
			<output>
				<port id="0" precision="FP32" names="refinement_stages.0.heatmaps.1.0.weight">
					<dim>19</dim>
					<dim>128</dim>
					<dim>1</dim>
					<dim>1</dim>
				</port>
			</output>
		</layer>
		<layer id="280" name="Convolution_3556" type="Convolution" version="opset1">
			<data strides="1, 1" dilations="1, 1" pads_begin="0, 0" pads_end="0, 0" auto_pad="explicit"/>
			<rt_info>
				<attribute name="fused_names" version="0" value="Convolution_3556"/>
			</rt_info>
			<input>
				<port id="0" precision="FP32">
					<dim>1</dim>
					<dim>128</dim>
					<dim>32</dim>
					<dim>56</dim>
				</port>
				<port id="1" precision="FP32">
					<dim>19</dim>
					<dim>128</dim>
					<dim>1</dim>
					<dim>1</dim>
				</port>
			</input>
			<output>
				<port id="2" precision="FP32">
					<dim>1</dim>
					<dim>19</dim>
					<dim>32</dim>
					<dim>56</dim>
				</port>
			</output>
		</layer>
		<layer id="281" name="Reshape_3576" type="Const" version="opset1">
			<data element_type="f32" shape="1, 19, 1, 1" offset="16332824" size="76"/>
			<output>
				<port id="0" precision="FP32">
					<dim>1</dim>
					<dim>19</dim>
					<dim>1</dim>
					<dim>1</dim>
				</port>
			</output>
		</layer>
		<layer id="282" name="input.368" type="Add" version="opset1">
			<data auto_broadcast="numpy"/>
			<rt_info>
				<attribute name="fused_names" version="0" value="Concat_3575, Reshape_3576, input.368"/>
			</rt_info>
			<input>
				<port id="0" precision="FP32">
					<dim>1</dim>
					<dim>19</dim>
					<dim>32</dim>
					<dim>56</dim>
				</port>
				<port id="1" precision="FP32">
					<dim>1</dim>
					<dim>19</dim>
					<dim>1</dim>
					<dim>1</dim>
				</port>
			</input>
			<output>
				<port id="2" precision="FP32" names="input.368">
					<dim>1</dim>
					<dim>19</dim>
					<dim>32</dim>
					<dim>56</dim>
				</port>
			</output>
		</layer>
		<layer id="283" name="fake_conv_heatmaps.weight" type="Const" version="opset1">
			<data element_type="f32" shape="19, 19, 1, 1" offset="16332900" size="1444"/>
			<rt_info>
				<attribute name="fused_names" version="0" value="fake_conv_heatmaps.weight"/>
			</rt_info>
			<output>
				<port id="0" precision="FP32" names="fake_conv_heatmaps.weight">
					<dim>19</dim>
					<dim>19</dim>
					<dim>1</dim>
					<dim>1</dim>
				</port>
			</output>
		</layer>
		<layer id="284" name="onnx::Add_551" type="Convolution" version="opset1">
			<data strides="1, 1" dilations="1, 1" pads_begin="0, 0" pads_end="0, 0" auto_pad="explicit"/>
			<rt_info>
				<attribute name="fused_names" version="0" value="onnx::Add_551"/>
			</rt_info>
			<input>
				<port id="0" precision="FP32">
					<dim>1</dim>
					<dim>19</dim>
					<dim>32</dim>
					<dim>56</dim>
				</port>
				<port id="1" precision="FP32">
					<dim>19</dim>
					<dim>19</dim>
					<dim>1</dim>
					<dim>1</dim>
				</port>
			</input>
			<output>
				<port id="2" precision="FP32" names="onnx::Add_551">
					<dim>1</dim>
					<dim>19</dim>
					<dim>32</dim>
					<dim>56</dim>
				</port>
			</output>
		</layer>
		<layer id="285" name="heatmaps" type="Add" version="opset1">
			<data auto_broadcast="numpy"/>
…
				</port>
			</input>
			<output>
				<port id="2" precision="FP32" names="input.540">
					<dim>1</dim>
					<dim>128</dim>
					<dim>32</dim>
					<dim>56</dim>
				</port>
			</output>
		</layer>
		<layer id="382" name="onnx::Conv_613" type="ReLU" version="opset1">
			<rt_info>
				<attribute name="fused_names" version="0" value="onnx::Conv_613"/>
			</rt_info>
			<input>
				<port id="0" precision="FP32">
					<dim>1</dim>
					<dim>128</dim>
					<dim>32</dim>
					<dim>56</dim>
				</port>
			</input>
			<output>
				<port id="1" precision="FP32" names="onnx::Conv_613">
					<dim>1</dim>
					<dim>128</dim>
					<dim>32</dim>
					<dim>56</dim>
				</port>
			</output>
		</layer>
		<layer id="383" name="onnx::Conv_781" type="Const" version="opset1">
			<data element_type="f32" shape="128, 128, 3, 3" offset="18363160" size="589824"/>
			<rt_info>
				<attribute name="fused_names" version="0" value="onnx::Conv_781"/>
			</rt_info>
			<output>
				<port id="0" precision="FP32" names="onnx::Conv_781">
					<dim>128</dim>
					<dim>128</dim>
					<dim>3</dim>
					<dim>3</dim>
				</port>
			</output>
		</layer>
		<layer id="384" name="Convolution_4595" type="Convolution" version="opset1">
			<data strides="1, 1" dilations="2, 2" pads_begin="2, 2" pads_end="2, 2" auto_pad="explicit"/>
			<rt_info>
				<attribute name="fused_names" version="0" value="Convolution_4595"/>
			</rt_info>
			<input>
				<port id="0" precision="FP32">
					<dim>1</dim>
					<dim>128</dim>
					<dim>32</dim>
					<dim>56</dim>
				</port>
				<port id="1" precision="FP32">
					<dim>128</dim>
					<dim>128</dim>
					<dim>3</dim>
					<dim>3</dim>
				</port>
			</input>
			<output>
				<port id="2" precision="FP32">
					<dim>1</dim>
					<dim>128</dim>
					<dim>32</dim>
					<dim>56</dim>
				</port>
			</output>
		</layer>
		<layer id="385" name="Reshape_4615" type="Const" version="opset1">
			<data element_type="f32" shape="1, 128, 1, 1" offset="18952984" size="512"/>
			<output>
				<port id="0" precision="FP32">
					<dim>1</dim>
					<dim>128</dim>
					<dim>1</dim>
					<dim>1</dim>
				</port>
			</output>
		</layer>
		<layer id="386" name="input.548" type="Add" version="opset1">
			<data auto_broadcast="numpy"/>
			<rt_info>
				<attribute name="fused_names" version="0" value="Concat_4614, Reshape_4615, input.548"/>
			</rt_info>
			<input>
				<port id="0" precision="FP32">
					<dim>1</dim>
					<dim>128</dim>
					<dim>32</dim>
					<dim>56</dim>
				</port>
				<port id="1" precision="FP32">
					<dim>1</dim>
					<dim>128</dim>
					<dim>1</dim>
					<dim>1</dim>
				</port>
			</input>
			<output>
				<port id="2" precision="FP32" names="input.548">
					<dim>1</dim>
					<dim>128</dim>
					<dim>32</dim>
					<dim>56</dim>
				</port>
			</output>
		</layer>
		<layer id="387" name="onnx::Add_616" type="ReLU" version="opset1">
			<rt_info>
				<attribute name="fused_names" version="0" value="onnx::Add_616"/>
			</rt_info>
			<input>
				<port id="0" precision="FP32">
					<dim>1</dim>
					<dim>128</dim>
					<dim>32</dim>
					<dim>56</dim>
				</port>
			</input>
			<output>
				<port id="1" precision="FP32" names="onnx::Add_616">
					<dim>1</dim>
					<dim>128</dim>
					<dim>32</dim>
					<dim>56</dim>
				</port>
			</output>
		</layer>
		<layer id="388" name="input.552" type="Add" version="opset1">
			<data auto_broadcast="numpy"/>
			<rt_info>
				<attribute name="fused_names" version="0" value="input.552"/>
			</rt_info>
			<input>
				<port id="0" precision="FP32">
					<dim>1</dim>
					<dim>128</dim>
					<dim>32</dim>
					<dim>56</dim>
				</port>
				<port id="1" precision="FP32">
					<dim>1</dim>
					<dim>128</dim>
					<dim>32</dim>
					<dim>56</dim>
				</port>
			</input>
			<output>
				<port id="2" precision="FP32" names="input.552">
					<dim>1</dim>
					<dim>128</dim>
					<dim>32</dim>
					<dim>56</dim>
				</port>
			</output>
		</layer>
		<layer id="389" name="Pose3D.prediction.trunk.1.initial.0.weight" type="Const" version="opset1">
			<data element_type="f32" shape="128, 128, 1, 1" offset="18953496" size="65536"/>
			<rt_info>
				<attribute name="fused_names" version="0" value="Pose3D.prediction.trunk.1.initial.0.weight"/>
			</rt_info>
			<output>
				<port id="0" precision="FP32" names="Pose3D.prediction.trunk.1.initial.0.weight">
					<dim>128</dim>
					<dim>128</dim>
					<dim>1</dim>
					<dim>1</dim>
				</port>
			</output>
		</layer>
		<layer id="390" name="Convolution_4645" type="Convolution" version="opset1">
			<data strides="1, 1" dilations="1, 1" pads_begin="0, 0" pads_end="0, 0" auto_pad="explicit"/>
			<rt_info>
				<attribute name="fused_names" version="0" value="Convolution_4645"/>
			</rt_info>
			<input>
				<port id="0" precision="FP32">
					<dim>1</dim>
					<dim>128</dim>
					<dim>32</dim>
					<dim>56</dim>
				</port>
				<port id="1" precision="FP32">
					<dim>128</dim>
					<dim>128</dim>
					<dim>1</dim>
					<dim>1</dim>
				</port>
			</input>
			<output>
				<port id="2" precision="FP32">
					<dim>1</dim>
					<dim>128</dim>
					<dim>32</dim>
					<dim>56</dim>
				</port>
			</output>
		</layer>
		<layer id="391" name="Reshape_4665" type="Const" version="opset1">
			<data element_type="f32" shape="1, 128, 1, 1" offset="19019032" size="512"/>
			<output>
				<port id="0" precision="FP32">
					<dim>1</dim>
					<dim>128</dim>
					<dim>1</dim>
					<dim>1</dim>
				</port>
			</output>
		</layer>
		<layer id="392" name="input.556" type="Add" version="opset1">
			<data auto_broadcast="numpy"/>
			<rt_info>
				<attribute name="fused_names" version="0" value="Concat_4664, Reshape_4665, input.556"/>
			</rt_info>
			<input>
				<port id="0" precision="FP32">
					<dim>1</dim>
					<dim>128</dim>
					<dim>32</dim>
					<dim>56</dim>
				</port>
				<port id="1" precision="FP32">
					<dim>1</dim>
					<dim>128</dim>
					<dim>1</dim>
					<dim>1</dim>
				</port>
			</input>
			<output>
				<port id="2" precision="FP32" names="input.556">
					<dim>1</dim>
					<dim>128</dim>
					<dim>32</dim>
					<dim>56</dim>
				</port>
			</output>
		</layer>
		<layer id="393" name="onnx::Conv_619" type="ReLU" version="opset1">
			<rt_info>
				<attribute name="fused_names" version="0" value="onnx::Conv_619"/>
			</rt_info>
			<input>
				<port id="0" precision="FP32">
					<dim>1</dim>
					<dim>128</dim>
					<dim>32</dim>
					<dim>56</dim>
				</port>
			</input>
			<output>
				<port id="1" precision="FP32" names="onnx::Conv_619">
					<dim>1</dim>
					<dim>128</dim>
					<dim>32</dim>
					<dim>56</dim>
				</port>
			</output>
		</layer>
		<layer id="394" name="onnx::Conv_784" type="Const" version="opset1">
			<data element_type="f32" shape="128, 128, 3, 3" offset="19019544" size="589824"/>
			<rt_info>
				<attribute name="fused_names" version="0" value="onnx::Conv_784"/>
			</rt_info>
			<output>
				<port id="0" precision="FP32" names="onnx::Conv_784">
					<dim>128</dim>
					<dim>128</dim>
					<dim>3</dim>
					<dim>3</dim>
				</port>
			</output>
		</layer>
		<layer id="395" name="Convolution_4694" type="Convolution" version="opset1">
			<data strides="1, 1" dilations="1, 1" pads_begin="1, 1" pads_end="1, 1" auto_pad="explicit"/>
			<rt_info>
				<attribute name="fused_names" version="0" value="Convolution_4694"/>
			</rt_info>
			<input>
				<port id="0" precision="FP32">
					<dim>1</dim>
					<dim>128</dim>
					<dim>32</dim>
					<dim>56</dim>
				</port>
				<port id="1" precision="FP32">
					<dim>128</dim>
					<dim>128</dim>
					<dim>3</dim>
					<dim>3</dim>
				</port>
			</input>
			<output>
				<port id="2" precision="FP32">
					<dim>1</dim>
					<dim>128</dim>
					<dim>32</dim>
					<dim>56</dim>
				</port>
			</output>
		</layer>
		<layer id="396" name="Reshape_4714" type="Const" version="opset1">
			<data element_type="f32" shape="1, 128, 1, 1" offset="19609368" size="512"/>
			<output>
				<port id="0" precision="FP32">
					<dim>1</dim>
					<dim>128</dim>
					<dim>1</dim>
					<dim>1</dim>
				</port>
			</output>
		</layer>
		<layer id="397" name="input.564" type="Add" version="opset1">
			<data auto_broadcast="numpy"/>
			<rt_info>
				<attribute name="fused_names" version="0" value="Concat_4713, Reshape_4714, input.564"/>
			</rt_info>
			<input>
				<port id="0" precision="FP32">
					<dim>1</dim>
					<dim>128</dim>
					<dim>32</dim>
					<dim>56</dim>
				</port>
				<port id="1" precision="FP32">
					<dim>1</dim>
					<dim>128</dim>
					<dim>1</dim>
					<dim>1</dim>
				</port>
			</input>
			<output>
				<port id="2" precision="FP32" names="input.564">
					<dim>1</dim>
					<dim>128</dim>
					<dim>32</dim>
					<dim>56</dim>
				</port>
			</output>
		</layer>
		<layer id="398" name="onnx::Conv_622" type="ReLU" version="opset1">
			<rt_info>
				<attribute name="fused_names" version="0" value="onnx::Conv_622"/>
			</rt_info>
			<input>
				<port id="0" precision="FP32">
					<dim>1</dim>
					<dim>128</dim>
					<dim>32</dim>
					<dim>56</dim>
				</port>
			</input>
			<output>
				<port id="1" precision="FP32" names="onnx::Conv_622">
					<dim>1</dim>
					<dim>128</dim>
					<dim>32</dim>
					<dim>56</dim>
				</port>
			</output>
		</layer>
		<layer id="399" name="onnx::Conv_787" type="Const" version="opset1">
			<data element_type="f32" shape="128, 128, 3, 3" offset="19609880" size="589824"/>
			<rt_info>
				<attribute name="fused_names" version="0" value="onnx::Conv_787"/>
			</rt_info>
			<output>
				<port id="0" precision="FP32" names="onnx::Conv_787">
					<dim>128</dim>
					<dim>128</dim>
					<dim>3</dim>
					<dim>3</dim>
				</port>
			</output>
		</layer>
		<layer id="400" name="Convolution_4743" type="Convolution" version="opset1">
			<data strides="1, 1" dilations="2, 2" pads_begin="2, 2" pads_end="2, 2" auto_pad="explicit"/>
			<rt_info>
				<attribute name="fused_names" version="0" value="Convolution_4743"/>
			</rt_info>
			<input>
				<port id="0" precision="FP32">
					<dim>1</dim>
					<dim>128</dim>
					<dim>32</dim>
					<dim>56</dim>
				</port>
				<port id="1" precision="FP32">
					<dim>128</dim>
					<dim>128</dim>
					<dim>3</dim>
					<dim>3</dim>
				</port>
			</input>
			<output>
				<port id="2" precision="FP32">
					<dim>1</dim>
					<dim>128</dim>
					<dim>32</dim>
					<dim>56</dim>
				</port>
			</output>
		</layer>
		<layer id="401" name="Reshape_4763" type="Const" version="opset1">
			<data element_type="f32" shape="1, 128, 1, 1" offset="20199704" size="512"/>
			<output>
				<port id="0" precision="FP32">
					<dim>1</dim>
					<dim>128</dim>
					<dim>1</dim>
					<dim>1</dim>
				</port>
			</output>
		</layer>
		<layer id="402" name="input.572" type="Add" version="opset1">
			<data auto_broadcast="numpy"/>
			<rt_info>
				<attribute name="fused_names" version="0" value="Concat_4762, Reshape_4763, input.572"/>
			</rt_info>
			<input>
				<port id="0" precision="FP32">
					<dim>1</dim>
					<dim>128</dim>
					<dim>32</dim>
					<dim>56</dim>
				</port>
				<port id="1" precision="FP32">
					<dim>1</dim>
					<dim>128</dim>
					<dim>1</dim>
					<dim>1</dim>
				</port>
			</input>
			<output>
				<port id="2" precision="FP32" names="input.572">
					<dim>1</dim>
					<dim>128</dim>
					<dim>32</dim>
					<dim>56</dim>
				</port>
			</output>
		</layer>
		<layer id="403" name="onnx::Add_625" type="ReLU" version="opset1">
			<rt_info>
				<attribute name="fused_names" version="0" value="onnx::Add_625"/>
			</rt_info>
			<input>
				<port id="0" precision="FP32">
					<dim>1</dim>
					<dim>128</dim>
					<dim>32</dim>
					<dim>56</dim>
				</port>
			</input>
			<output>
				<port id="1" precision="FP32" names="onnx::Add_625">
					<dim>1</dim>
					<dim>128</dim>
					<dim>32</dim>
					<dim>56</dim>
				</port>
			</output>
		</layer>
		<layer id="404" name="input.576" type="Add" version="opset1">
			<data auto_broadcast="numpy"/>
			<rt_info>
				<attribute name="fused_names" version="0" value="input.576"/>
			</rt_info>
			<input>
				<port id="0" precision="FP32">
					<dim>1</dim>
					<dim>128</dim>
					<dim>32</dim>
					<dim>56</dim>
				</port>
				<port id="1" precision="FP32">
					<dim>1</dim>
					<dim>128</dim>
					<dim>32</dim>
					<dim>56</dim>
				</port>
			</input>
			<output>
				<port id="2" precision="FP32" names="input.576">
					<dim>1</dim>
					<dim>128</dim>
					<dim>32</dim>
					<dim>56</dim>
				</port>
			</output>
		</layer>
		<layer id="405" name="Pose3D.prediction.feature_maps.0.0.weight" type="Const" version="opset1">
			<data element_type="f32" shape="128, 128, 1, 1" offset="20200216" size="65536"/>
			<rt_info>
				<attribute name="fused_names" version="0" value="Pose3D.prediction.feature_maps.0.0.weight"/>
			</rt_info>
			<output>
				<port id="0" precision="FP32" names="Pose3D.prediction.feature_maps.0.0.weight">
					<dim>128</dim>
					<dim>128</dim>
					<dim>1</dim>
					<dim>1</dim>
				</port>
			</output>
		</layer>
		<layer id="406" name="Convolution_4793" type="Convolution" version="opset1">
			<data strides="1, 1" dilations="1, 1" pads_begin="0, 0" pads_end="0, 0" auto_pad="explicit"/>
			<rt_info>
				<attribute name="fused_names" version="0" value="Convolution_4793"/>
			</rt_info>
			<input>
				<port id="0" precision="FP32">
					<dim>1</dim>
					<dim>128</dim>
					<dim>32</dim>
					<dim>56</dim>
				</port>
				<port id="1" precision="FP32">
					<dim>128</dim>
					<dim>128</dim>
					<dim>1</dim>
					<dim>1</dim>
				</port>
			</input>
			<output>
				<port id="2" precision="FP32">
					<dim>1</dim>
					<dim>128</dim>
					<dim>32</dim>
					<dim>56</dim>
				</port>
			</output>
		</layer>
		<layer id="407" name="Reshape_4813" type="Const" version="opset1">
			<data element_type="f32" shape="1, 128, 1, 1" offset="20265752" size="512"/>
			<output>
				<port id="0" precision="FP32">
					<dim>1</dim>
					<dim>128</dim>
					<dim>1</dim>
					<dim>1</dim>
				</port>
			</output>
		</layer>
		<layer id="408" name="input.580" type="Add" version="opset1">
			<data auto_broadcast="numpy"/>
			<rt_info>
				<attribute name="fused_names" version="0" value="Concat_4812, Reshape_4813, input.580"/>
			</rt_info>
			<input>
				<port id="0" precision="FP32">
					<dim>1</dim>
					<dim>128</dim>
					<dim>32</dim>
					<dim>56</dim>
				</port>
				<port id="1" precision="FP32">
					<dim>1</dim>
					<dim>128</dim>
					<dim>1</dim>
					<dim>1</dim>
				</port>
			</input>
			<output>
				<port id="2" precision="FP32" names="input.580">
					<dim>1</dim>
					<dim>128</dim>
					<dim>32</dim>
					<dim>56</dim>
				</port>
			</output>
		</layer>
		<layer id="409" name="onnx::Conv_628" type="ReLU" version="opset1">
			<rt_info>
				<attribute name="fused_names" version="0" value="onnx::Conv_628"/>
			</rt_info>
			<input>
				<port id="0" precision="FP32">
					<dim>1</dim>
					<dim>128</dim>
					<dim>32</dim>
					<dim>56</dim>
				</port>
			</input>
			<output>
				<port id="1" precision="FP32" names="onnx::Conv_628">
					<dim>1</dim>
					<dim>128</dim>
					<dim>32</dim>
					<dim>56</dim>
				</port>
			</output>
		</layer>
		<layer id="410" name="Pose3D.prediction.feature_maps.1.0.weight" type="Const" version="opset1">
			<data element_type="f32" shape="57, 128, 1, 1" offset="20266264" size="29184"/>
			<rt_info>
				<attribute name="fused_names" version="0" value="Pose3D.prediction.feature_maps.1.0.weight"/>
			</rt_info>
			<output>
				<port id="0" precision="FP32" names="Pose3D.prediction.feature_maps.1.0.weight">
					<dim>57</dim>
					<dim>128</dim>
					<dim>1</dim>
					<dim>1</dim>
				</port>
			</output>
		</layer>
		<layer id="411" name="Convolution_4842" type="Convolution" version="opset1">
			<data strides="1, 1" dilations="1, 1" pads_begin="0, 0" pads_end="0, 0" auto_pad="explicit"/>
			<rt_info>
				<attribute name="fused_names" version="0" value="Convolution_4842"/>
			</rt_info>
			<input>
				<port id="0" precision="FP32">
					<dim>1</dim>
					<dim>128</dim>
					<dim>32</dim>
					<dim>56</dim>
				</port>
				<port id="1" precision="FP32">
					<dim>57</dim>
					<dim>128</dim>
					<dim>1</dim>
					<dim>1</dim>
				</port>
			</input>
			<output>
				<port id="2" precision="FP32">
					<dim>1</dim>
					<dim>57</dim>
					<dim>32</dim>
					<dim>56</dim>
				</port>
			</output>
		</layer>
		<layer id="412" name="Reshape_4862" type="Const" version="opset1">
			<data element_type="f32" shape="1, 57, 1, 1" offset="20295448" size="228"/>
			<output>
				<port id="0" precision="FP32">
					<dim>1</dim>
					<dim>57</dim>
					<dim>1</dim>
					<dim>1</dim>
				</port>
			</output>
		</layer>
		<layer id="413" name="features" type="Add" version="opset1">
			<data auto_broadcast="numpy"/>
			<rt_info>
				<attribute name="fused_names" version="0" value="Concat_4861, Reshape_4862, features"/>
			</rt_info>
			<input>
				<port id="0" precision="FP32">
					<dim>1</dim>
					<dim>57</dim>
					<dim>32</dim>
					<dim>56</dim>
				</port>
				<port id="1" precision="FP32">
					<dim>1</dim>
					<dim>57</dim>
					<dim>1</dim>
					<dim>1</dim>
				</port>
			</input>
			<output>
				<port id="2" precision="FP32" names="features">
					<dim>1</dim>
					<dim>57</dim>
					<dim>32</dim>
					<dim>56</dim>
				</port>
			</output>
		</layer>
		<layer id="414" name="features/sink_port_0" type="Result" version="opset1">
			<rt_info>
				<attribute name="fused_names" version="0" value="features/sink_port_0"/>
			</rt_info>
			<input>
				<port id="0" precision="FP32">
					<dim>1</dim>
					<dim>57</dim>
					<dim>32</dim>
					<dim>56</dim>
				</port>
			</input>
		</layer>
		<layer id="286" name="heatmaps/sink_port_0" type="Result" version="opset1">
			<rt_info>
				<attribute name="fused_names" version="0" value="heatmaps/sink_port_0"/>
			</rt_info>
			<input>
				<port id="0" precision="FP32">
					<dim>1</dim>
					<dim>19</dim>
					<dim>32</dim>
					<dim>56</dim>
				</port>
			</input>
		</layer>
		<layer id="273" name="pafs/sink_port_0" type="Result" version="opset1">
			<rt_info>
				<attribute name="fused_names" version="0" value="pafs/sink_port_0"/>
			</rt_info>
			<input>
				<port id="0" precision="FP32">
					<dim>1</dim>
					<dim>38</dim>
					<dim>32</dim>
					<dim>56</dim>
				</port>
			</input>
		</layer>
	</layers>
	<edges>
		<edge from-layer="0" from-port="0" to-layer="2" to-port="0"/>
		<edge from-layer="1" from-port="0" to-layer="2" to-port="1"/>
		<edge from-layer="2" from-port="2" to-layer="4" to-port="0"/>
		<edge from-layer="3" from-port="0" to-layer="4" to-port="1"/>
		<edge from-layer="4" from-port="2" to-layer="6" to-port="0"/>
		<edge from-layer="5" from-port="0" to-layer="6" to-port="1"/>
		<edge from-layer="6" from-port="2" to-layer="7" to-port="0"/>
		<edge from-layer="7" from-port="1" to-layer="9" to-port="0"/>
		<edge from-layer="8" from-port="0" to-layer="9" to-port="1"/>
		<edge from-layer="9" from-port="2" to-layer="11" to-port="0"/>
		<edge from-layer="10" from-port="0" to-layer="11" to-port="1"/>
		<edge from-layer="11" from-port="2" to-layer="12" to-port="0"/>
		<edge from-layer="12" from-port="1" to-layer="14" to-port="0"/>
		<edge from-layer="13" from-port="0" to-layer="14" to-port="1"/>
		<edge from-layer="14" from-port="2" to-layer="16" to-port="0"/>
		<edge from-layer="15" from-port="0" to-layer="16" to-port="1"/>
		<edge from-layer="16" from-port="2" to-layer="17" to-port="0"/>
		<edge from-layer="17" from-port="1" to-layer="19" to-port="0"/>
		<edge from-layer="18" from-port="0" to-layer="19" to-port="1"/>
		<edge from-layer="19" from-port="2" to-layer="21" to-port="0"/>
		<edge from-layer="20" from-port="0" to-layer="21" to-port="1"/>
		<edge from-layer="21" from-port="2" to-layer="22" to-port="0"/>
		<edge from-layer="22" from-port="1" to-layer="24" to-port="0"/>
		<edge from-layer="23" from-port="0" to-layer="24" to-port="1"/>
		<edge from-layer="24" from-port="2" to-layer="26" to-port="0"/>
		<edge from-layer="25" from-port="0" to-layer="26" to-port="1"/>
		<edge from-layer="26" from-port="2" to-layer="27" to-port="0"/>
		<edge from-layer="27" from-port="1" to-layer="29" to-port="0"/>
		<edge from-layer="28" from-port="0" to-layer="29" to-port="1"/>
		<edge from-layer="29" from-port="2" to-layer="31" to-port="0"/>
		<edge from-layer="30" from-port="0" to-layer="31" to-port="1"/>
		<edge from-layer="31" from-port="2" to-layer="32" to-port="0"/>
		<edge from-layer="32" from-port="1" to-layer="34" to-port="0"/>
		<edge from-layer="33" from-port="0" to-layer="34" to-port="1"/>
		<edge from-layer="34" from-port="2" to-layer="36" to-port="0"/>
		<edge from-layer="35" from-port="0" to-layer="36" to-port="1"/>
		<edge from-layer="36" from-port="2" to-layer="37" to-port="0"/>
		<edge from-layer="37" from-port="1" to-layer="39" to-port="0"/>
		<edge from-layer="38" from-port="0" to-layer="39" to-port="1"/>
		<edge from-layer="39" from-port="2" to-layer="41" to-port="0"/>
		<edge from-layer="40" from-port="0" to-layer="41" to-port="1"/>
		<edge from-layer="41" from-port="2" to-layer="42" to-port="0"/>
		<edge from-layer="42" from-port="1" to-layer="44" to-port="0"/>
		<edge from-layer="43" from-port="0" to-layer="44" to-port="1"/>
		<edge from-layer="44" from-port="2" to-layer="46" to-port="0"/>
		<edge from-layer="45" from-port="0" to-layer="46" to-port="1"/>
		<edge from-layer="46" from-port="2" to-layer="47" to-port="0"/>
		<edge from-layer="47" from-port="1" to-layer="49" to-port="0"/>
		<edge from-layer="48" from-port="0" to-layer="49" to-port="1"/>
		<edge from-layer="49" from-port="2" to-layer="51" to-port="0"/>
		<edge from-layer="50" from-port="0" to-layer="51" to-port="1"/>
		<edge from-layer="51" from-port="2" to-layer="52" to-port="0"/>
		<edge from-layer="52" from-port="1" to-layer="54" to-port="0"/>
		<edge from-layer="53" from-port="0" to-layer="54" to-port="1"/>
		<edge from-layer="54" from-port="2" to-layer="56" to-port="0"/>
		<edge from-layer="55" from-port="0" to-layer="56" to-port="1"/>
		<edge from-layer="56" from-port="2" to-layer="57" to-port="0"/>
		<edge from-layer="57" from-port="1" to-layer="59" to-port="0"/>
		<edge from-layer="58" from-port="0" to-layer="59" to-port="1"/>
		<edge from-layer="59" from-port="2" to-layer="61" to-port="0"/>
		<edge from-layer="60" from-port="0" to-layer="61" to-port="1"/>
		<edge from-layer="61" from-port="2" to-layer="62" to-port="0"/>
		<edge from-layer="62" from-port="1" to-layer="64" to-port="0"/>
		<edge from-layer="63" from-port="0" to-layer="64" to-port="1"/>
		<edge from-layer="64" from-port="2" to-layer="66" to-port="0"/>
		<edge from-layer="65" from-port="0" to-layer="66" to-port="1"/>
		<edge from-layer="66" from-port="2" to-layer="67" to-port="0"/>
		<edge from-layer="67" from-port="1" to-layer="69" to-port="0"/>
		<edge from-layer="68" from-port="0" to-layer="69" to-port="1"/>
		<edge from-layer="69" from-port="2" to-layer="71" to-port="0"/>
		<edge from-layer="70" from-port="0" to-layer="71" to-port="1"/>
		<edge from-layer="71" from-port="2" to-layer="72" to-port="0"/>
		<edge from-layer="72" from-port="1" to-layer="74" to-port="0"/>
		<edge from-layer="73" from-port="0" to-layer="74" to-port="1"/>
		<edge from-layer="74" from-port="2" to-layer="76" to-port="0"/>
		<edge from-layer="75" from-port="0" to-layer="76" to-port="1"/>
		<edge from-layer="76" from-port="2" to-layer="77" to-port="0"/>
		<edge from-layer="77" from-port="1" to-layer="79" to-port="0"/>
		<edge from-layer="78" from-port="0" to-layer="79" to-port="1"/>
		<edge from-layer="79" from-port="2" to-layer="81" to-port="0"/>
		<edge from-layer="80" from-port="0" to-layer="81" to-port="1"/>
		<edge from-layer="81" from-port="2" to-layer="82" to-port="0"/>
		<edge from-layer="82" from-port="1" to-layer="84" to-port="0"/>
		<edge from-layer="83" from-port="0" to-layer="84" to-port="1"/>
		<edge from-layer="84" from-port="2" to-layer="86" to-port="0"/>
		<edge from-layer="85" from-port="0" to-layer="86" to-port="1"/>
		<edge from-layer="86" from-port="2" to-layer="87" to-port="0"/>
		<edge from-layer="87" from-port="1" to-layer="89" to-port="0"/>
		<edge from-layer="88" from-port="0" to-layer="89" to-port="1"/>
		<edge from-layer="89" from-port="2" to-layer="91" to-port="0"/>
		<edge from-layer="90" from-port="0" to-layer="91" to-port="1"/>
		<edge from-layer="91" from-port="2" to-layer="92" to-port="0"/>
		<edge from-layer="92" from-port="1" to-layer="94" to-port="0"/>
		<edge from-layer="93" from-port="0" to-layer="94" to-port="1"/>
		<edge from-layer="94" from-port="2" to-layer="96" to-port="0"/>
		<edge from-layer="95" from-port="0" to-layer="96" to-port="1"/>
		<edge from-layer="96" from-port="2" to-layer="97" to-port="0"/>
		<edge from-layer="97" from-port="1" to-layer="99" to-port="0"/>
		<edge from-layer="98" from-port="0" to-layer="99" to-port="1"/>
		<edge from-layer="99" from-port="2" to-layer="101" to-port="0"/>
		<edge from-layer="100" from-port="0" to-layer="101" to-port="1"/>
		<edge from-layer="101" from-port="2" to-layer="102" to-port="0"/>
		<edge from-layer="102" from-port="1" to-layer="104" to-port="0"/>
		<edge from-layer="103" from-port="0" to-layer="104" to-port="1"/>
		<edge from-layer="104" from-port="2" to-layer="106" to-port="0"/>
		<edge from-layer="105" from-port="0" to-layer="106" to-port="1"/>
		<edge from-layer="106" from-port="2" to-layer="107" to-port="0"/>
		<edge from-layer="107" from-port="1" to-layer="109" to-port="0"/>
		<edge from-layer="108" from-port="0" to-layer="109" to-port="1"/>
		<edge from-layer="109" from-port="2" to-layer="111" to-port="0"/>
		<edge from-layer="110" from-port="0" to-layer="111" to-port="1"/>
		<edge from-layer="111" from-port="2" to-layer="112" to-port="0"/>
		<edge from-layer="112" from-port="1" to-layer="114" to-port="0"/>
		<edge from-layer="113" from-port="0" to-layer="114" to-port="1"/>
		<edge from-layer="114" from-port="2" to-layer="116" to-port="0"/>
		<edge from-layer="115" from-port="0" to-layer="116" to-port="1"/>
		<edge from-layer="116" from-port="2" to-layer="117" to-port="0"/>
		<edge from-layer="117" from-port="1" to-layer="119" to-port="0"/>
		<edge from-layer="118" from-port="0" to-layer="119" to-port="1"/>
		<edge from-layer="119" from-port="2" to-layer="121" to-port="0"/>
		<edge from-layer="120" from-port="0" to-layer="121" to-port="1"/>
		<edge from-layer="121" from-port="2" to-layer="122" to-port="0"/>
		<edge from-layer="122" from-port="1" to-layer="124" to-port="0"/>
		<edge from-layer="122" from-port="1" to-layer="141" to-port="0"/>
		<edge from-layer="123" from-port="0" to-layer="124" to-port="1"/>
		<edge from-layer="124" from-port="2" to-layer="125" to-port="0"/>
		<edge from-layer="125" from-port="1" to-layer="127" to-port="0"/>
		<edge from-layer="126" from-port="0" to-layer="127" to-port="1"/>
		<edge from-layer="127" from-port="2" to-layer="128" to-port="0"/>
		<edge from-layer="128" from-port="1" to-layer="130" to-port="0"/>
		<edge from-layer="129" from-port="0" to-layer="130" to-port="1"/>
		<edge from-layer="130" from-port="2" to-layer="131" to-port="0"/>
		<edge from-layer="131" from-port="1" to-layer="133" to-port="0"/>
		<edge from-layer="132" from-port="0" to-layer="133" to-port="1"/>
		<edge from-layer="133" from-port="2" to-layer="134" to-port="0"/>
		<edge from-layer="134" from-port="1" to-layer="136" to-port="0"/>
		<edge from-layer="135" from-port="0" to-layer="136" to-port="1"/>
		<edge from-layer="136" from-port="2" to-layer="137" to-port="0"/>
		<edge from-layer="137" from-port="1" to-layer="139" to-port="0"/>
		<edge from-layer="138" from-port="0" to-layer="139" to-port="1"/>
		<edge from-layer="139" from-port="2" to-layer="140" to-port="0"/>
		<edge from-layer="140" from-port="1" to-layer="141" to-port="1"/>
		<edge from-layer="141" from-port="2" to-layer="143" to-port="0"/>
		<edge from-layer="142" from-port="0" to-layer="143" to-port="1"/>
		<edge from-layer="143" from-port="2" to-layer="145" to-port="0"/>
		<edge from-layer="144" from-port="0" to-layer="145" to-port="1"/>
		<edge from-layer="145" from-port="2" to-layer="146" to-port="0"/>
		<edge from-layer="146" from-port="1" to-layer="148" to-port="0"/>
		<edge from-layer="146" from-port="1" to-layer="287" to-port="0"/>
		<edge from-layer="146" from-port="1" to-layer="180" to-port="0"/>
		<edge from-layer="147" from-port="0" to-layer="148" to-port="1"/>
		<edge from-layer="148" from-port="2" to-layer="150" to-port="0"/>
		<edge from-layer="149" from-port="0" to-layer="150" to-port="1"/>
		<edge from-layer="150" from-port="2" to-layer="151" to-port="0"/>
		<edge from-layer="151" from-port="1" to-layer="153" to-port="0"/>
		<edge from-layer="152" from-port="0" to-layer="153" to-port="1"/>
		<edge from-layer="153" from-port="2" to-layer="155" to-port="0"/>
		<edge from-layer="154" from-port="0" to-layer="155" to-port="1"/>
		<edge from-layer="155" from-port="2" to-layer="156" to-port="0"/>
		<edge from-layer="156" from-port="1" to-layer="158" to-port="0"/>
		<edge from-layer="157" from-port="0" to-layer="158" to-port="1"/>
		<edge from-layer="158" from-port="2" to-layer="160" to-port="0"/>
		<edge from-layer="159" from-port="0" to-layer="160" to-port="1"/>
		<edge from-layer="160" from-port="2" to-layer="161" to-port="0"/>
		<edge from-layer="161" from-port="1" to-layer="172" to-port="0"/>
		<edge from-layer="161" from-port="1" to-layer="163" to-port="0"/>
		<edge from-layer="162" from-port="0" to-layer="163" to-port="1"/>
		<edge from-layer="163" from-port="2" to-layer="165" to-port="0"/>
		<edge from-layer="164" from-port="0" to-layer="165" to-port="1"/>
		<edge from-layer="165" from-port="2" to-layer="166" to-port="0"/>
		<edge from-layer="166" from-port="1" to-layer="168" to-port="0"/>
		<edge from-layer="167" from-port="0" to-layer="168" to-port="1"/>
		<edge from-layer="168" from-port="2" to-layer="170" to-port="0"/>
		<edge from-layer="169" from-port="0" to-layer="170" to-port="1"/>
		<edge from-layer="170" from-port="2" to-layer="180" to-port="1"/>
		<edge from-layer="171" from-port="0" to-layer="172" to-port="1"/>
		<edge from-layer="172" from-port="2" to-layer="174" to-port="0"/>
		<edge from-layer="173" from-port="0" to-layer="174" to-port="1"/>
		<edge from-layer="174" from-port="2" to-layer="175" to-port="0"/>
		<edge from-layer="175" from-port="1" to-layer="177" to-port="0"/>
		<edge from-layer="176" from-port="0" to-layer="177" to-port="1"/>
		<edge from-layer="177" from-port="2" to-layer="179" to-port="0"/>
		<edge from-layer="178" from-port="0" to-layer="179" to-port="1"/>
		<edge from-layer="179" from-port="2" to-layer="180" to-port="2"/>
		<edge from-layer="180" from-port="3" to-layer="182" to-port="0"/>
		<edge from-layer="181" from-port="0" to-layer="182" to-port="1"/>
		<edge from-layer="182" from-port="2" to-layer="184" to-port="0"/>
		<edge from-layer="183" from-port="0" to-layer="184" to-port="1"/>
		<edge from-layer="184" from-port="2" to-layer="185" to-port="0"/>
		<edge from-layer="185" from-port="1" to-layer="187" to-port="0"/>
		<edge from-layer="185" from-port="1" to-layer="196" to-port="0"/>
		<edge from-layer="186" from-port="0" to-layer="187" to-port="1"/>
		<edge from-layer="187" from-port="2" to-layer="189" to-port="0"/>
		<edge from-layer="188" from-port="0" to-layer="189" to-port="1"/>
		<edge from-layer="189" from-port="2" to-layer="190" to-port="0"/>
		<edge from-layer="190" from-port="1" to-layer="192" to-port="0"/>
		<edge from-layer="191" from-port="0" to-layer="192" to-port="1"/>
		<edge from-layer="192" from-port="2" to-layer="194" to-port="0"/>
		<edge from-layer="193" from-port="0" to-layer="194" to-port="1"/>
		<edge from-layer="194" from-port="2" to-layer="195" to-port="0"/>
		<edge from-layer="195" from-port="1" to-layer="196" to-port="1"/>
		<edge from-layer="196" from-port="2" to-layer="198" to-port="0"/>
		<edge from-layer="197" from-port="0" to-layer="198" to-port="1"/>
		<edge from-layer="198" from-port="2" to-layer="200" to-port="0"/>
		<edge from-layer="199" from-port="0" to-layer="200" to-port="1"/>
		<edge from-layer="200" from-port="2" to-layer="201" to-port="0"/>
		<edge from-layer="201" from-port="1" to-layer="203" to-port="0"/>
		<edge from-layer="201" from-port="1" to-layer="212" to-port="0"/>
		<edge from-layer="202" from-port="0" to-layer="203" to-port="1"/>
		<edge from-layer="203" from-port="2" to-layer="205" to-port="0"/>
		<edge from-layer="204" from-port="0" to-layer="205" to-port="1"/>
		<edge from-layer="205" from-port="2" to-layer="206" to-port="0"/>
		<edge from-layer="206" from-port="1" to-layer="208" to-port="0"/>
		<edge from-layer="207" from-port="0" to-layer="208" to-port="1"/>
		<edge from-layer="208" from-port="2" to-layer="210" to-port="0"/>
		<edge from-layer="209" from-port="0" to-layer="210" to-port="1"/>
		<edge from-layer="210" from-port="2" to-layer="211" to-port="0"/>
		<edge from-layer="211" from-port="1" to-layer="212" to-port="1"/>
		<edge from-layer="212" from-port="2" to-layer="214" to-port="0"/>
		<edge from-layer="213" from-port="0" to-layer="214" to-port="1"/>
		<edge from-layer="214" from-port="2" to-layer="216" to-port="0"/>
		<edge from-layer="215" from-port="0" to-layer="216" to-port="1"/>
		<edge from-layer="216" from-port="2" to-layer="217" to-port="0"/>
		<edge from-layer="217" from-port="1" to-layer="219" to-port="0"/>
		<edge from-layer="217" from-port="1" to-layer="228" to-port="0"/>
		<edge from-layer="218" from-port="0" to-layer="219" to-port="1"/>
		<edge from-layer="219" from-port="2" to-layer="221" to-port="0"/>
		<edge from-layer="220" from-port="0" to-layer="221" to-port="1"/>
		<edge from-layer="221" from-port="2" to-layer="222" to-port="0"/>
		<edge from-layer="222" from-port="1" to-layer="224" to-port="0"/>
		<edge from-layer="223" from-port="0" to-layer="224" to-port="1"/>
		<edge from-layer="224" from-port="2" to-layer="226" to-port="0"/>
		<edge from-layer="225" from-port="0" to-layer="226" to-port="1"/>
		<edge from-layer="226" from-port="2" to-layer="227" to-port="0"/>
		<edge from-layer="227" from-port="1" to-layer="228" to-port="1"/>
		<edge from-layer="228" from-port="2" to-layer="230" to-port="0"/>
		<edge from-layer="229" from-port="0" to-layer="230" to-port="1"/>
		<edge from-layer="230" from-port="2" to-layer="232" to-port="0"/>
		<edge from-layer="231" from-port="0" to-layer="232" to-port="1"/>
		<edge from-layer="232" from-port="2" to-layer="233" to-port="0"/>
		<edge from-layer="233" from-port="1" to-layer="235" to-port="0"/>
		<edge from-layer="233" from-port="1" to-layer="244" to-port="0"/>
		<edge from-layer="234" from-port="0" to-layer="235" to-port="1"/>
		<edge from-layer="235" from-port="2" to-layer="237" to-port="0"/>
		<edge from-layer="236" from-port="0" to-layer="237" to-port="1"/>
		<edge from-layer="237" from-port="2" to-layer="238" to-port="0"/>
		<edge from-layer="238" from-port="1" to-layer="240" to-port="0"/>
		<edge from-layer="239" from-port="0" to-layer="240" to-port="1"/>
		<edge from-layer="240" from-port="2" to-layer="242" to-port="0"/>
		<edge from-layer="241" from-port="0" to-layer="242" to-port="1"/>
		<edge from-layer="242" from-port="2" to-layer="243" to-port="0"/>
		<edge from-layer="243" from-port="1" to-layer="244" to-port="1"/>
		<edge from-layer="244" from-port="2" to-layer="246" to-port="0"/>
		<edge from-layer="245" from-port="0" to-layer="246" to-port="1"/>
		<edge from-layer="246" from-port="2" to-layer="248" to-port="0"/>
		<edge from-layer="247" from-port="0" to-layer="248" to-port="1"/>
		<edge from-layer="248" from-port="2" to-layer="249" to-port="0"/>
		<edge from-layer="249" from-port="1" to-layer="251" to-port="0"/>
		<edge from-layer="249" from-port="1" to-layer="260" to-port="0"/>
		<edge from-layer="250" from-port="0" to-layer="251" to-port="1"/>
		<edge from-layer="251" from-port="2" to-layer="253" to-port="0"/>
		<edge from-layer="252" from-port="0" to-layer="253" to-port="1"/>
		<edge from-layer="253" from-port="2" to-layer="254" to-port="0"/>
		<edge from-layer="254" from-port="1" to-layer="256" to-port="0"/>
		<edge from-layer="255" from-port="0" to-layer="256" to-port="1"/>
		<edge from-layer="256" from-port="2" to-layer="258" to-port="0"/>
		<edge from-layer="257" from-port="0" to-layer="258" to-port="1"/>
		<edge from-layer="258" from-port="2" to-layer="259" to-port="0"/>
		<edge from-layer="259" from-port="1" to-layer="260" to-port="1"/>
		<edge from-layer="260" from-port="2" to-layer="262" to-port="0"/>
		<edge from-layer="260" from-port="2" to-layer="275" to-port="0"/>
		<edge from-layer="261" from-port="0" to-layer="262" to-port="1"/>
		<edge from-layer="262" from-port="2" to-layer="264" to-port="0"/>
		<edge from-layer="263" from-port="0" to-layer="264" to-port="1"/>
		<edge from-layer="264" from-port="2" to-layer="265" to-port="0"/>
		<edge from-layer="265" from-port="1" to-layer="267" to-port="0"/>
		<edge from-layer="266" from-port="0" to-layer="267" to-port="1"/>
		<edge from-layer="267" from-port="2" to-layer="269" to-port="0"/>
		<edge from-layer="268" from-port="0" to-layer="269" to-port="1"/>
		<edge from-layer="269" from-port="2" to-layer="271" to-port="0"/>
		<edge from-layer="269" from-port="2" to-layer="272" to-port="0"/>
		<edge from-layer="269" from-port="2" to-layer="287" to-port="2"/>
		<edge from-layer="270" from-port="0" to-layer="271" to-port="1"/>
		<edge from-layer="271" from-port="2" to-layer="272" to-port="1"/>
		<edge from-layer="272" from-port="2" to-layer="273" to-port="0"/>
		<edge from-layer="274" from-port="0" to-layer="275" to-port="1"/>
		<edge from-layer="275" from-port="2" to-layer="277" to-port="0"/>
		<edge from-layer="276" from-port="0" to-layer="277" to-port="1"/>
		<edge from-layer="277" from-port="2" to-layer="278" to-port="0"/>
		<edge from-layer="278" from-port="1" to-layer="280" to-port="0"/>
		<edge from-layer="279" from-port="0" to-layer="280" to-port="1"/>
		<edge from-layer="280" from-port="2" to-layer="282" to-port="0"/>
		<edge from-layer="281" from-port="0" to-layer="282" to-port="1"/>
		<edge from-layer="282" from-port="2" to-layer="284" to-port="0"/>
		<edge from-layer="282" from-port="2" to-layer="285" to-port="0"/>
		<edge from-layer="282" from-port="2" to-layer="287" to-port="1"/>
		<edge from-layer="283" from-port="0" to-layer="284" to-port="1"/>
		<edge from-layer="284" from-port="2" to-layer="285" to-port="1"/>
		<edge from-layer="285" from-port="2" to-layer="286" to-port="0"/>
		<edge from-layer="287" from-port="3" to-layer="289" to-port="0"/>
		<edge from-layer="287" from-port="3" to-layer="294" to-port="0"/>
		<edge from-layer="288" from-port="0" to-layer="289" to-port="1"/>
		<edge from-layer="289" from-port="2" to-layer="291" to-port="0"/>
		<edge from-layer="290" from-port="0" to-layer="291" to-port="1"/>
		<edge from-layer="291" from-port="2" to-layer="292" to-port="0"/>
		<edge from-layer="292" from-port="1" to-layer="308" to-port="0"/>
		<edge from-layer="293" from-port="0" to-layer="294" to-port="1"/>
		<edge from-layer="294" from-port="2" to-layer="296" to-port="0"/>
		<edge from-layer="295" from-port="0" to-layer="296" to-port="1"/>
		<edge from-layer="296" from-port="2" to-layer="297" to-port="0"/>
		<edge from-layer="297" from-port="1" to-layer="299" to-port="0"/>
		<edge from-layer="298" from-port="0" to-layer="299" to-port="1"/>
		<edge from-layer="299" from-port="2" to-layer="301" to-port="0"/>
		<edge from-layer="300" from-port="0" to-layer="301" to-port="1"/>
		<edge from-layer="301" from-port="2" to-layer="302" to-port="0"/>
		<edge from-layer="302" from-port="1" to-layer="304" to-port="0"/>
		<edge from-layer="303" from-port="0" to-layer="304" to-port="1"/>
		<edge from-layer="304" from-port="2" to-layer="306" to-port="0"/>
		<edge from-layer="305" from-port="0" to-layer="306" to-port="1"/>
		<edge from-layer="306" from-port="2" to-layer="307" to-port="0"/>
		<edge from-layer="307" from-port="1" to-layer="308" to-port="1"/>
		<edge from-layer="308" from-port="2" to-layer="310" to-port="0"/>
		<edge from-layer="308" from-port="2" to-layer="324" to-port="0"/>
		<edge from-layer="309" from-port="0" to-layer="310" to-port="1"/>
		<edge from-layer="310" from-port="2" to-layer="312" to-port="0"/>
		<edge from-layer="311" from-port="0" to-layer="312" to-port="1"/>
		<edge from-layer="312" from-port="2" to-layer="313" to-port="0"/>
		<edge from-layer="313" from-port="1" to-layer="315" to-port="0"/>
		<edge from-layer="314" from-port="0" to-layer="315" to-port="1"/>
		<edge from-layer="315" from-port="2" to-layer="317" to-port="0"/>
		<edge from-layer="316" from-port="0" to-layer="317" to-port="1"/>
		<edge from-layer="317" from-port="2" to-layer="318" to-port="0"/>
		<edge from-layer="318" from-port="1" to-layer="320" to-port="0"/>
		<edge from-layer="319" from-port="0" to-layer="320" to-port="1"/>
		<edge from-layer="320" from-port="2" to-layer="322" to-port="0"/>
		<edge from-layer="321" from-port="0" to-layer="322" to-port="1"/>
		<edge from-layer="322" from-port="2" to-layer="323" to-port="0"/>
		<edge from-layer="323" from-port="1" to-layer="324" to-port="1"/>
		<edge from-layer="324" from-port="2" to-layer="326" to-port="0"/>
		<edge from-layer="324" from-port="2" to-layer="340" to-port="0"/>
		<edge from-layer="325" from-port="0" to-layer="326" to-port="1"/>
		<edge from-layer="326" from-port="2" to-layer="328" to-port="0"/>
		<edge from-layer="327" from-port="0" to-layer="328" to-port="1"/>
		<edge from-layer="328" from-port="2" to-layer="329" to-port="0"/>
		<edge from-layer="329" from-port="1" to-layer="331" to-port="0"/>
		<edge from-layer="330" from-port="0" to-layer="331" to-port="1"/>
		<edge from-layer="331" from-port="2" to-layer="333" to-port="0"/>
		<edge from-layer="332" from-port="0" to-layer="333" to-port="1"/>
		<edge from-layer="333" from-port="2" to-layer="334" to-port="0"/>
		<edge from-layer="334" from-port="1" to-layer="336" to-port="0"/>
		<edge from-layer="335" from-port="0" to-layer="336" to-port="1"/>
		<edge from-layer="336" from-port="2" to-layer="338" to-port="0"/>
		<edge from-layer="337" from-port="0" to-layer="338" to-port="1"/>
		<edge from-layer="338" from-port="2" to-layer="339" to-port="0"/>
		<edge from-layer="339" from-port="1" to-layer="340" to-port="1"/>
		<edge from-layer="340" from-port="2" to-layer="342" to-port="0"/>
		<edge from-layer="340" from-port="2" to-layer="356" to-port="0"/>
		<edge from-layer="341" from-port="0" to-layer="342" to-port="1"/>
		<edge from-layer="342" from-port="2" to-layer="344" to-port="0"/>
		<edge from-layer="343" from-port="0" to-layer="344" to-port="1"/>
		<edge from-layer="344" from-port="2" to-layer="345" to-port="0"/>
		<edge from-layer="345" from-port="1" to-layer="347" to-port="0"/>
		<edge from-layer="346" from-port="0" to-layer="347" to-port="1"/>
		<edge from-layer="347" from-port="2" to-layer="349" to-port="0"/>
		<edge from-layer="348" from-port="0" to-layer="349" to-port="1"/>
		<edge from-layer="349" from-port="2" to-layer="350" to-port="0"/>
		<edge from-layer="350" from-port="1" to-layer="352" to-port="0"/>
		<edge from-layer="351" from-port="0" to-layer="352" to-port="1"/>
		<edge from-layer="352" from-port="2" to-layer="354" to-port="0"/>
		<edge from-layer="353" from-port="0" to-layer="354" to-port="1"/>
		<edge from-layer="354" from-port="2" to-layer="355" to-port="0"/>
		<edge from-layer="355" from-port="1" to-layer="356" to-port="1"/>
		<edge from-layer="356" from-port="2" to-layer="358" to-port="0"/>
		<edge from-layer="356" from-port="2" to-layer="372" to-port="0"/>
		<edge from-layer="357" from-port="0" to-layer="358" to-port="1"/>
		<edge from-layer="358" from-port="2" to-layer="360" to-port="0"/>
		<edge from-layer="359" from-port="0" to-layer="360" to-port="1"/>
		<edge from-layer="360" from-port="2" to-layer="361" to-port="0"/>
		<edge from-layer="361" from-port="1" to-layer="363" to-port="0"/>
		<edge from-layer="362" from-port="0" to-layer="363" to-port="1"/>
		<edge from-layer="363" from-port="2" to-layer="365" to-port="0"/>
		<edge from-layer="364" from-port="0" to-layer="365" to-port="1"/>
		<edge from-layer="365" from-port="2" to-layer="366" to-port="0"/>
		<edge from-layer="366" from-port="1" to-layer="368" to-port="0"/>
		<edge from-layer="367" from-port="0" to-layer="368" to-port="1"/>
		<edge from-layer="368" from-port="2" to-layer="370" to-port="0"/>
		<edge from-layer="369" from-port="0" to-layer="370" to-port="1"/>
		<edge from-layer="370" from-port="2" to-layer="371" to-port="0"/>
		<edge from-layer="371" from-port="1" to-layer="372" to-port="1"/>
		<edge from-layer="372" from-port="2" to-layer="374" to-port="0"/>
		<edge from-layer="373" from-port="0" to-layer="374" to-port="1"/>
		<edge from-layer="374" from-port="2" to-layer="376" to-port="0"/>
		<edge from-layer="375" from-port="0" to-layer="376" to-port="1"/>
		<edge from-layer="376" from-port="2" to-layer="377" to-port="0"/>
		<edge from-layer="377" from-port="1" to-layer="379" to-port="0"/>
		<edge from-layer="377" from-port="1" to-layer="388" to-port="0"/>
		<edge from-layer="378" from-port="0" to-layer="379" to-port="1"/>
		<edge from-layer="379" from-port="2" to-layer="381" to-port="0"/>
		<edge from-layer="380" from-port="0" to-layer="381" to-port="1"/>
		<edge from-layer="381" from-port="2" to-layer="382" to-port="0"/>
		<edge from-layer="382" from-port="1" to-layer="384" to-port="0"/>
		<edge from-layer="383" from-port="0" to-layer="384" to-port="1"/>
		<edge from-layer="384" from-port="2" to-layer="386" to-port="0"/>
		<edge from-layer="385" from-port="0" to-layer="386" to-port="1"/>
		<edge from-layer="386" from-port="2" to-layer="387" to-port="0"/>
		<edge from-layer="387" from-port="1" to-layer="388" to-port="1"/>
		<edge from-layer="388" from-port="2" to-layer="390" to-port="0"/>
		<edge from-layer="389" from-port="0" to-layer="390" to-port="1"/>
		<edge from-layer="390" from-port="2" to-layer="392" to-port="0"/>
		<edge from-layer="391" from-port="0" to-layer="392" to-port="1"/>
		<edge from-layer="392" from-port="2" to-layer="393" to-port="0"/>
		<edge from-layer="393" from-port="1" to-layer="395" to-port="0"/>
		<edge from-layer="393" from-port="1" to-layer="404" to-port="0"/>
		<edge from-layer="394" from-port="0" to-layer="395" to-port="1"/>
		<edge from-layer="395" from-port="2" to-layer="397" to-port="0"/>
		<edge from-layer="396" from-port="0" to-layer="397" to-port="1"/>
		<edge from-layer="397" from-port="2" to-layer="398" to-port="0"/>
		<edge from-layer="398" from-port="1" to-layer="400" to-port="0"/>
		<edge from-layer="399" from-port="0" to-layer="400" to-port="1"/>
		<edge from-layer="400" from-port="2" to-layer="402" to-port="0"/>
		<edge from-layer="401" from-port="0" to-layer="402" to-port="1"/>
		<edge from-layer="402" from-port="2" to-layer="403" to-port="0"/>
		<edge from-layer="403" from-port="1" to-layer="404" to-port="1"/>
		<edge from-layer="404" from-port="2" to-layer="406" to-port="0"/>
		<edge from-layer="405" from-port="0" to-layer="406" to-port="1"/>
		<edge from-layer="406" from-port="2" to-layer="408" to-port="0"/>
		<edge from-layer="407" from-port="0" to-layer="408" to-port="1"/>
		<edge from-layer="408" from-port="2" to-layer="409" to-port="0"/>
		<edge from-layer="409" from-port="1" to-layer="411" to-port="0"/>
		<edge from-layer="410" from-port="0" to-layer="411" to-port="1"/>
		<edge from-layer="411" from-port="2" to-layer="413" to-port="0"/>
		<edge from-layer="412" from-port="0" to-layer="413" to-port="1"/>
		<edge from-layer="413" from-port="2" to-layer="414" to-port="0"/>
	</edges>
	<meta_data>
		<MO_version value="2022.1.0-7019-cdb9bec7210-releases/2022/1"/>
		<Runtime_version value="2022.1.0-7019-cdb9bec7210-releases/2022/1"/>
		<legacy_path value="False"/>
		<cli_parameters>
			<caffe_parser_path value="DIR"/>
			<compress_fp16 value="False"/>
			<data_type value="float"/>
			<disable_nhwc_to_nchw value="False"/>
			<disable_omitting_optional value="False"/>
			<disable_resnet_optimization value="False"/>
			<disable_weights_compression value="False"/>
			<enable_concat_optimization value="False"/>
			<enable_flattening_nested_params value="False"/>
			<enable_ssd_gluoncv value="False"/>
			<extensions value="DIR"/>
			<framework value="onnx"/>
			<freeze_placeholder_with_value value="{}"/>
			<input value="data"/>
			<input_model value="DIR\human-pose-estimation-3d.onnx"/>
			<input_model_is_text value="False"/>
			<k value="DIR\CustomLayersMapping.xml"/>
			<layout value="()"/>
			<layout_values value="{}"/>
			<legacy_mxnet_model value="False"/>
			<log_level value="ERROR"/>
			<mean_scale_values value="{'data': {'mean': array([128., 128., 128.]), 'scale': array([255., 255., 255.])}}"/>
			<mean_values value="data[128.0,128.0,128.0]"/>
			<model_name value="human-pose-estimation-3d"/>
			<output value="['features', 'heatmaps', 'pafs']"/>
			<output_dir value="DIR"/>
			<placeholder_data_types value="{}"/>
			<placeholder_shapes value="{'data': None}"/>
			<progress value="False"/>
			<remove_memory value="False"/>
			<remove_output_softmax value="False"/>
			<reverse_input_channels value="False"/>
			<save_params_from_nd value="False"/>
			<scale_values value="data[255.0,255.0,255.0]"/>
			<silent value="False"/>
			<source_layout value="()"/>
			<static_shape value="False"/>
			<stream_output value="False"/>
			<target_layout value="()"/>
			<transform value=""/>
			<use_legacy_frontend value="False"/>
			<use_new_frontend value="False"/>
			<unset unset_cli_parameters="batch, counts, disable_fusing, finegrain_fusing, input_checkpoint, input_meta_graph, input_proto, input_shape, input_symbol, mean_file, mean_file_offsets, nd_prefix_name, pretrained_model_name, saved_model_dir, saved_model_tags, scale, tensorboard_logdir, tensorflow_custom_layer_libraries, tensorflow_custom_operations_config_update, tensorflow_object_detection_api_pipeline_config, tensorflow_use_custom_operations_config, transformations_config"/>
		</cli_parameters>
	</meta_data>
</net>
